labs/models_push/cnn_mnistm/model.pt (torch, 79933 bytes, 26 tensors)

features.0.0.weight f4 [16, 3, 3, 3]
000000 9c bd 31 bc d7 8f 01 3d 3d 0a 68 3e 26 28 c1 3e
       -0.010848429 0.031631317 0.22660156 0.37725943
000010 4e 0e 39 3f 5c fd 96 3e ad e5 d2 bd 9a 00 1c be
       0.7228745 0.29490173 -0.102977134 -0.15234604
000020 62 9f a8 bd 0a 95 9c 3e 04 90 30 3d 23 dd 19 3e
       -0.08233525 0.30582458 0.043106094 0.15025763
000030 83 c0 bd be d6 91 bb be db b7 6d be dc 20 de be
       -0.37060937 -0.36634701 -0.23214667 -0.43384445
000040 f8 1c bb be ca 55 9d be 89 6f 44 be 06 57 c1 be
       -0.3654554 -0.30729514 -0.19183172 -0.37761706
000050 65 2e 93 be b1 39 5c bd 67 37 23 be bb 3c 12 be
       -0.28746334 -0.053765956 -0.15939103 -0.1428098
000060 8f c4 1d 3f 66 38 ff 3e dc 62 ef 3e f9 65 9a bd
       0.6162805 0.49847716 0.4675511 -0.07538981
000070 fb 22 25 be 33 0f 1f be 39 af 4e bd 65 e7 9e 3e
       -0.16126625 -0.15533142 -0.050460074 0.31035915
000080 7f 2e b7 3d 17 29 53 3d 06 b7 7d be ae db ab bc
       0.08944415 0.05155286 -0.24776849 -0.020978775
000090 6f f9 e2 3c c0 86 69 bd 58 20 26 be 6b 43 43 bc
       0.02770683 -0.057013273 -0.16223276 -0.011917929
0000a0 b0 7b b2 3e 84 a1 03 3e a4 8b d0 3d 9f 6f 36 be
       0.3485999 0.12854582 0.10182884 -0.17816018
0000b0 8b 04 61 3d 8a 3f 8d 3d 3f 65 0d ba 91 01 97 bd
       0.054935973 0.06896885 -0.000539381 -0.07373346
0000c0 82 db df bd 0b b7 85 3e 9f 35 e3 3d 3e bd 37 bd
       -0.1093054 0.26116213 0.11094212 -0.04485821
0000d0 03 97 8a be 90 72 60 3c e3 4f 30 be a4 65 f6 bd
       -0.27068338 0.013699189 -0.17217974 -0.12031105
0000e0 9f 69 26 bc fd d8 6c bd c2 3b c2 3c 99 91 ce 3d
       -0.010157018 -0.057824124 0.023710135 0.10086364
0000f0 94 1e f1 3d 95 3c bb 3d ab 59 a2 3d c4 a0 94 3d
       0.117734104 0.091424145 0.07927259 0.07257226
000100 30 2c c8 3c 87 68 3e bd 61 2a eb bb e6 c1 90 bd
       0.024435133 -0.046486404 -0.007176683 -0.07068233
000110 60 68 3a bd 1c e2 83 bd 2e 7e a7 bd 67 fb c2 bc
       -0.045509696 -0.06439611 -0.08178364 -0.023801519
000120 97 ad 3c 3e 5d 50 d5 3d f7 f4 23 bc 08 96 35 3d
       0.18425594 0.10415719 -0.010007135 0.044332534
000130 49 35 88 3c 59 33 08 bd 3d 8f 93 bd 8c 64 de bd
       0.01662697 -0.033252094 -0.07205055 -0.108590215
000140 31 92 c3 bd 24 5b a0 3c f7 67 d5 bc 6e 73 a9 be
       -0.09549368 0.01957471 -0.02605055 -0.33095878
000150 46 d1 5c 3e b7 47 c3 3c 49 8d b3 be 97 2c 6e 3e
       0.21564206 0.023837907 -0.3506873 0.23259197
000160 31 e2 16 bd d8 eb d8 bd 58 d1 6c 3d e6 33 80 3d
       -0.036836807 -0.105918586 0.057816833 0.06259899
000170 5c 77 1e be 77 06 2e 3e 18 f7 a4 3d bf 76 62 be
       -0.1547522 0.16994654 0.08054942 -0.2211561
000180 a6 ca 2c 3e 9c 32 f0 3c eb 84 42 bd 26 5f a2 3d
       0.16874179 0.029321007 -0.04749004 0.079283044
000190 60 4b ce 3c b0 fb ec bd 52 ae be 3d e3 2e b2 3c
       0.025182426 -0.11571443 0.09310593 0.021750873
0001a0 6d 61 39 be 65 36 d9 3d 7b a7 68 3d e4 0a 06 3a
       -0.18103571 0.10606078 0.056800347 0.0005113317
0001b0 53 7b 1c 3e db d2 05 3e 0f 24 c2 3e f3 51 dd be
       0.1528142 0.13068716 0.37918136 -0.43226585
0001c0 cc 3a f3 be b4 08 73 bd d1 05 44 bf 21 e8 47 be
       -0.47505796 -0.05933447 -0.76571375 -0.19522144
0001d0 c2 5b 5b 3d ac bb 02 3c 16 a9 6c be a3 3b 2d bf
       0.053554304 0.007979315 -0.23111376 -0.67669123
0001e0 56 21 b9 3e 29 86 b5 be c9 14 1f bf e3 05 24 3f
       0.36158246 -0.3545392 -0.6214109 0.6407148
0001f0 af 52 c1 3d 0f fb 40 bd ba 25 4d be 51 f8 12 3e
       0.09439599 -0.047114428 -0.20033923 0.14352538
000200 3a 7d de 3e 91 87 84 3e fc dc 12 3f cf c6 66 3f
       0.43454915 0.2588468 0.57368445 0.9014711
000210 a4 c2 67 3d 10 63 0e 3e ad ca 0b bc 01 2a 20 bd
       0.05658211 0.13904977 -0.008532208 -0.039102558
000220 f9 ed 3a bb 6d 2f 15 be 4f 0e d7 3e ca 2c 6f 3e
       -0.002852319 -0.14568873 0.42003104 0.2335693
000230 cb b1 eb bc 9b 65 b9 3e a6 44 1e 3e cb f4 89 bd
       -0.028771302 0.3621033 0.15455875 -0.06736144
000240 39 07 b2 3d 6f 82 a0 3e 44 a4 ca 3e 41 e1 c9 bd
       0.08692784 0.31349513 0.3957845 -0.09857417
000250 92 1b 13 3e d3 16 a8 3e d3 86 46 be 54 9e 11 3d
       0.14365986 0.32829913 -0.19387369 0.035551384
000260 23 11 15 3e ef e9 11 be 9c d5 74 be e0 22 cf be
       0.14557318 -0.14249395 -0.2390961 -0.40456295
000270 7b 86 99 be 52 8a c8 be bb a8 b1 be 2b 7f 32 be
       -0.29985413 -0.3916803 -0.34699044 -0.17431323
000280 8f 3b 66 be f0 f1 c7 bd be 05 b9 bd f6 42 3d be
       -0.22483657 -0.09762943 -0.09034298 -0.18482575
000290 be 84 26 be 77 f6 76 be b5 53 2e be 18 63 03 be
       -0.16261575 -0.24117456 -0.17024119 -0.1283077
0002a0 c8 b6 0d be 94 0f c9 3d 29 e4 41 3e 63 fa 17 be
       -0.13839257 0.098174244 0.18934692 -0.14841609
0002b0 e1 d2 b3 bd 77 c9 89 ba a3 54 8c 3d 2e 2f 0f 3e
       -0.08780456 -0.0010512312 0.06852081 0.13982841
0002c0 54 12 37 3e bd 21 5e 3e 72 72 3e 3e fd 80 30 3e
       0.17878085 0.21692558 0.18598345 0.17236705
0002d0 ee 05 8a 3e 14 67 92 3e 92 b3 0b 3e a8 83 3c 3e
       0.2695765 0.28594267 0.1364272 0.18409598
0002e0 f1 7f a3 3d 8d 05 e7 bd 05 cf f7 bd 49 f7 bc be
       0.07983387 -0.112803556 -0.12100033 -0.36907414
0002f0 8b 37 c3 be eb 72 03 be ff f6 a8 bd f5 0d 80 be
       -0.38128313 -0.12836806 -0.08250236 -0.25010648
000300 c2 8e b7 bc b8 e1 e9 bc 9e 0d 0b be a3 4e 78 3e
       -0.02240694 -0.028550014 -0.13579413 0.24248748
000310 e5 6b 24 3e de b3 28 3e b7 b7 25 be 17 a4 f4 bc
       0.16056783 0.16474864 -0.16183363 -0.0298634
000320 d2 49 1f be b1 98 38 bd c2 d5 38 bc 7b 28 d4 bd
       -0.15555504 -0.045067493 -0.011281433 -0.103592835
000330 3c fc 75 3e 9b 6f 28 3e ed 17 25 3e 39 f7 1c be
       0.24022001 0.16448824 0.16122408 -0.15328683
000340 7b 67 c5 bd bd 78 53 be c4 55 fa bc da 7c 55 bc
       -0.09638878 -0.20651527 -0.030558474 -0.013030255
000350 bf 0f 17 be 51 f0 82 3e 91 c2 31 3e a6 23 41 3e
       -0.147521 0.25573972 0.17359377 0.18861255
000360 be 18 63 be ec a5 39 be 5c 4e 47 bc f6 68 55 be
       -0.22177407 -0.181297 -0.012164678 -0.2084082
000370 ed 1f 68 3d 75 34 89 3e be d5 08 be b4 4b dc 3d
       0.05667107 0.26797834 -0.13362786 0.10756627
000380 dc 81 33 3e ea ac d9 bd 36 31 a1 bd 40 17 d7 3c
       0.17530006 -0.10628684 -0.07870714 0.026256204
000390 ec ef d8 bd 06 00 da 3d 8a f6 5f 3e c5 6b 9e bc
       -0.105926365 0.10644536 0.21871391 -0.019338498
0003a0 36 0c 22 3e 4e 31 86 3d 3f b6 0f be 98 3a ae bd
       0.1582497 0.06552373 -0.14034365 -0.085072696
0003b0 5d 77 bb 3d 9b 6d 85 be c1 79 5c 3c 1f 6d 80 3e
       0.09153626 -0.26060185 0.013456763 0.25083253
0003c0 7a 3a be bd ba 11 13 3e 57 d7 37 3e 9e fc 26 be
       -0.09288497 0.14362231 0.1795324 -0.16307303
0003d0 1d 16 52 3e 49 bb b1 3e 97 ee c3 be 63 18 7a 3e
       0.20516248 0.347132 -0.38267967 0.24423365
0003e0 1f 5a 35 3f 75 cd 04 bf f7 a3 47 3e d6 21 8a 3e
       0.7084064 -0.51876 0.19496141 0.2697894
0003f0 54 f3 c7 3b a1 36 0d be 2e ed 0c be 70 96 38 be
       0.006102005 -0.1379037 -0.13762352 -0.18026137

features.0.0.bias f4 [16]
000000 23 87 d6 bb 5d da 07 bc ae 48 7a 3b 7f 04 21 3b
       -0.0065468713 -0.008291808 0.0038190293 0.002456933
000010 9f 51 06 bc e4 82 0b 3b 16 9c 6b 39 5c f6 aa 3b
       -0.008198171 0.0021287734 0.00022469493 0.0052173566
000020 06 7f d8 ba 7e c1 6d ba 59 3f a8 bb a7 42 ba bb
       -0.0016517348 -0.0009069665 -0.0051345048 -0.005684215
000030 2b 9e b0 bb ea 92 d8 ba d8 95 d1 b7 c6 ee 0d ba
       -0.005389949 -0.0016523276 -2.4984518e-05 -0.0005414303

features.0.1.weight f4 [16]
000000 5d 97 d5 3f 5b 71 63 3f ea 93 bb 3e 59 dc 73 3f
       1.6686817 0.8884484 0.36636287 0.952581
000010 60 a5 21 40 41 84 f0 3f 73 59 8c 3f f2 b4 8c 3f
       2.5257187 1.8790361 1.0964798 1.099272
000020 d3 9b 85 3f 82 0d d9 3f e4 e1 08 40 4e 23 7e 3f
       1.0438179 1.6957247 2.1387873 0.9927262
000030 db ae c0 3f 6c ca 75 3f aa e6 a8 3f 9c c7 81 3f
       1.5053362 0.96011996 1.3195393 1.0139041

features.0.1.bias f4 [16]
000000 33 5b 2a 3f 06 76 28 be 49 33 3f bb 3f 81 93 be
       0.6654541 -0.16451272 -0.0029174855 -0.28809544
000010 8a 06 25 3e 75 a0 5e 3f 2e 71 5f be e3 2c 8e be
       0.16115776 0.8696359 -0.21820518 -0.2776862
000020 2d f3 19 be bd 08 0a 3f 4f 4f 84 3f 41 8d 88 be
       -0.1503417 0.53919584 1.0336703 -0.26670268
000030 2c 4e 1e bf 06 f7 5e be 0a 29 e9 3d bf d0 31 3e
       -0.6183803 -0.2177392 0.11384781 0.17364787

features.0.1.running_mean f4 [16]
000000 ee 43 8f 3a cd aa 1e bc 20 97 1f 3b 77 1f b5 b8
       0.0010930279 -0.009684277 0.0024351552 -8.636613e-05
000010 76 1e 01 3d 6f 92 21 bd 8f a3 03 bb 51 65 06 3b
       0.03152319 -0.03944629 -0.0020086502 0.0020507167
000020 8a bd 84 3b 68 de a4 3c 30 d0 ee bc 8b f3 8c bb
       0.004050915 0.020125583 -0.029152006 -0.0043014935
000030 6b 99 3f 3d da 75 da ba 37 3a f3 bc 5f 5b 8c 3a
       0.04677717 -0.0016667203 -0.029690845 0.0010708383

features.0.1.running_var f4 [16]
000000 87 c3 0b 3f ba ab 64 3e a1 1b 81 3d 32 62 65 3f
       0.54595226 0.22331133 0.06304098 0.8960296
000010 4c 5d 00 40 7d 73 d0 3f d0 6d 86 3e 71 e1 82 3f
       2.0056944 1.6285244 0.26255655 1.0225049
000020 c7 5f 92 3f 50 6c 3a 3f b1 29 ac 3f 9d ef 46 3f
       1.1435479 0.7282152 1.3450223 0.7770937
000030 f2 98 1e 40 f5 f9 82 3f 6f 36 76 3f 43 db a2 3e
       2.478085 1.0232531 0.9617681 0.31807908

features.0.3.weight f4 [16, 16, 3, 3]
000000 f4 52 87 bd ce 9b 7e bc 5f 9a 76 bd 88 f8 37 be
       -0.06607619 -0.015540076 -0.060205813 -0.17965901
000010 62 0f ee bd b2 6e e5 bc 2e 55 4e bd fa 50 75 be
       -0.11624028 -0.028006885 -0.050374202 -0.23956671
000020 1f 07 32 3c 7e d1 e5 3d 8e 88 2a bd a9 1e f8 3c
       0.010865956 0.11221598 -0.041634135 0.030288057
000030 73 09 c5 3c e4 f0 1c 3e ca 80 1c 3e fd 1f 8a 3c
       0.024052357 0.15326267 0.15283504 0.016860956
000040 a1 b7 d4 3d b0 da 8c 3d 5d 0a 67 bd 39 d8 7d bc
       0.10386587 0.06877649 -0.056406368 -0.015493446
000050 0a 9c 12 bd b8 e7 f4 bc de 17 ab bc a4 61 dc bc
       -0.03579334 -0.029895648 -0.020885404 -0.026902027
000060 64 d5 3f bd 2f de 84 bc 86 34 6e 3b e5 af 39 38
       -0.046834365 -0.016219227 0.0036347224 4.427125e-05
000070 bd c8 8f bd 9f c5 9e bd 36 61 60 bd 33 ff e6 bd
       -0.0702071 -0.07752537 -0.054780208 -0.11279144
000080 71 cb 35 bd 32 97 6e 3c 72 f1 39 3d b1 ce d2 3d
       -0.04438347 0.014562415 0.045396276 0.102933295
000090 b7 4e cd bd d2 d1 d4 bd 91 fa 53 bd 60 dd 9f bd
       -0.10024779 -0.103915825 -0.05175263 -0.07805896
0000a0 c6 79 fe bd 1a 33 78 bd 49 9e 47 bd 4c 13 9c bd
       -0.1242557 -0.06059561 -0.048734937 -0.07620868
0000b0 99 82 cd bd d1 df 6d bd 0e 65 0d be 36 f4 9a bd
       -0.10034675 -0.058074776 -0.1380808 -0.07566111
0000c0 e8 2e c2 bd 17 10 10 be a7 ee 13 be d3 79 e9 bd
       -0.09481603 -0.14068638 -0.14446507 -0.11400189
0000d0 47 06 24 be 86 ff 22 be 66 b8 e8 bd 3e e6 99 bd
       -0.1601802 -0.15917787 -0.11363296 -0.07514618
0000e0 51 9f 3a 3c a1 1f 00 be 5d 9f f8 bd c9 40 80 bd
       0.011390523 -0.12512065 -0.12139771 -0.06262357
0000f0 cf b5 e7 bd d6 49 07 be 25 01 90 bd d5 3a 07 3d
       -0.11313974 -0.1321176 -0.07031468 0.03301509
000100 af 74 d3 3c 95 44 ad bd d2 b7 b4 bc 51 18 9b bd
       0.025812475 -0.084603466 -0.022060309 -0.07572997
000110 7b 18 aa bd 6f 64 ad bc ac cb 72 bd d5 6e a7 bd
       -0.083054505 -0.021166055 -0.059276268 -0.081754364
000120 54 88 db bd 9b 73 49 bd 24 91 92 bd 1f 43 d3 bd
       -0.10719362 -0.049182516 -0.071565896 -0.10315537
000130 f6 30 d8 bd 9f 82 fa bd 96 d2 5c 3d da d8 77 bc
       -0.105562136 -0.12231945 0.053911768 -0.015127385
000140 ef 0c f3 bc e0 56 10 be 97 5a 21 3d e8 54 69 bd
       -0.029669253 -0.1409564 0.039393034 -0.05696574
000150 30 f3 3c be f0 ce 22 bd 90 dc f5 3b c8 82 a2 bd
       -0.18452144 -0.039748132 0.0075030997 -0.07935101
000160 26 e5 b4 bd 17 87 1f 3d 80 c0 03 be 32 4f 76 bd
       -0.08832769 0.03894719 -0.12866402 -0.06013412
000170 00 c8 7a bd 3a 2d 90 bd a6 85 f6 bd 55 e0 70 bd
       -0.06122589 -0.07039876 -0.1203721 -0.05880769
000180 ab 02 06 be c9 a2 06 be e2 78 5c bd b8 8d 06 3d
       -0.13086955 -0.13148035 -0.05382622 0.032849997
000190 a9 4f 60 bd 8b 7d 94 bd 8d 8e f3 bd 11 11 0e be
       -0.05476347 -0.07250508 -0.11892424 -0.13873698
0001a0 f2 0e aa 3c ad 94 fe bc cc 37 c8 bd cb 48 34 bd
       0.02075908 -0.031076754 -0.097762674 -0.044014733
0001b0 c2 9d 1c be 13 4d 47 be 13 ce 2d be a2 94 08 be
       -0.15294555 -0.19462995 -0.16973142 -0.13337949
0001c0 d6 8d 37 be a2 02 1f be cf 36 28 be 69 20 20 be
       -0.179252 -0.15528348 -0.16427158 -0.15637363
0001d0 75 d1 1a be 66 8d 36 bb a9 65 42 bb 84 54 25 bd
       -0.15118964 -0.0027855276 -0.0029662645 -0.040363804
0001e0 e0 19 25 3d f6 e2 85 bd 82 22 b1 bd 01 59 8a bb
       0.04030788 -0.0653743 -0.0864916 -0.004222036
0001f0 71 58 a3 3c 5b 73 8b bb 83 10 c3 bd 67 2a c7 bd
       0.019939633 -0.004255695 -0.09524634 -0.097248845
000200 85 fd 22 be 90 47 05 be bd d5 b3 bd bd 88 0a be
       -0.15917023 -0.1301558 -0.08781002 -0.13528724
000210 7a 1c 52 be 1a 4a ca bd de 7c 21 be 60 e4 c6 bc
       -0.20518675 -0.09877415 -0.1577029 -0.02427882
000220 fd 97 d2 bd 69 57 ad bd d4 1e 02 bd 51 2f 86 bd
       -0.10282896 -0.08463938 -0.03176768 -0.06551994
000230 c0 52 ce bd 22 84 4e 3d a1 2f e7 ba 04 5f 57 bd
       -0.10074377 0.05041898 -0.0017638096 -0.05258085
000240 ef 49 6c 3d 6f 34 18 3d b6 29 1c 3d 24 c8 bf bd
       0.057687696 0.03715938 0.038125716 -0.09364346
000250 8c e4 c3 bd 29 39 bc bd 1c 39 0c 3e 48 e4 1d 3c
       -0.09565076 -0.0919059 0.1369366 0.009636946
000260 2f 3e e4 3c f7 d0 46 be 86 b6 2c be 33 0c c6 bd
       0.027861683 -0.19415651 -0.16866502 -0.096702956
000270 ad 58 8f 3d 55 2f 0d 3e c6 2e 77 3c 72 44 90 3d
       0.069993354 0.13787587 0.015086835 0.07044305
000280 2c 85 93 3d 45 64 0b 3e b0 11 83 bd a1 0c 8f bc
       0.07203135 0.13612469 -0.06399858 -0.017462077
000290 0f fc 53 3c 8d a5 a0 3c 32 ff 2d 3d d9 34 a1 3c
       0.012938513 0.01961019 0.0424797 0.01967852
0002a0 64 1a 80 bd 2a 1f 81 bd ba 5e 2b bd 34 7f 56 bd
       -0.062550336 -0.06304772 -0.041838385 -0.052367404
0002b0 a8 45 02 bd b5 b3 9d bd 8a d3 a4 bc cc 2a e1 bd
       -0.03180471 -0.07700292 -0.020120401 -0.10994491
0002c0 03 3a ac bd 62 1c 94 bd 29 5d 93 bd c9 cd de 3c
       -0.08409502 -0.07231976 -0.07195503 0.027197735
0002d0 cf 6b 31 be c8 46 1d be 1a 34 2a be 55 fa 9a bd
       -0.17326282 -0.15359032 -0.16621438 -0.07567278
0002e0 df 32 b0 bd 87 71 10 bd c6 b1 8c 3d 1e 68 f5 3d
       -0.08603453 -0.035264518 0.06869845 0.119827494
0002f0 17 cd 18 bd 12 d1 8b 3c 99 06 c5 bc 8c 0d 21 3d
       -0.037304964 0.017067466 -0.024050998 0.03931956
000300 cc c6 9e 3c 8f 59 75 bb e7 f8 0d 3d 11 8f d1 bd
       0.019381903 -0.0037437414 0.0346612 -0.10232366
000310 07 b3 02 be 7c 62 4c bd b9 4e 46 bd 1e 8c f5 bb
       -0.12763606 -0.04989861 -0.04841492 -0.00749351
000320 3f c4 03 bc 97 b3 8c 3d 2f 75 73 3d 57 d2 42 3d
       -0.008042394 0.068701915 0.059437927 0.047563877
000330 c8 28 20 3c d7 77 72 3b 48 1e 88 3c 82 70 31 be
       0.009775348 0.00369977 0.016616002 -0.17328075
000340 e6 8f 07 be be 59 cb bd 27 02 79 bd a0 5e 77 bd
       -0.13238487 -0.09929226 -0.06079307 -0.060392976
000350 97 e8 6e bc 92 da f1 3d ef 33 26 3e 16 c3 fc 3d
       -0.014581821 0.11809267 0.16230749 0.12341897
000360 00 4c be bd b1 dd ed 39 c7 4e 0d be a0 ed d9 bd
       -0.092918396 0.00045369336 -0.13799582 -0.106410265
000370 7d 78 88 3c df f0 17 be 7c 43 d0 bd 07 da 72 bd
       0.016659016 -0.14837979 -0.101691216 -0.05928996
000380 58 72 2d be c6 6f 22 be 9c b5 71 bc 6e cb 2d bd
       -0.1693815 -0.1586295 -0.014752772 -0.042430334
000390 14 21 06 be 91 bb b8 bd 49 14 0b bd 77 55 7d bd
       -0.13098556 -0.090201505 -0.033954892 -0.061849084
0003a0 43 1c 82 3d 01 1f 19 3e 5d 98 27 bd 96 60 87 bc
       0.06353047 0.14953233 -0.04091679 -0.016525548
0003b0 79 09 8f bc 71 71 79 3c 13 8a 01 3b 73 be de 3b
       -0.017460572 0.0152248 0.0019766137 0.0067976057
0003c0 92 35 8e bd 8a 73 9e bc 04 e8 9e bd 04 69 17 be
       -0.069438115 -0.019342203 -0.07759097 -0.14786154
0003d0 79 f7 a4 bd 81 cf 05 be 63 72 7d 3d b8 96 d6 3d
       -0.08055014 -0.13067438 0.061876666 0.10477966
0003e0 3e 83 9c 3b 09 ac d0 3d 75 06 9c bd af 69 08 bd
       0.0047763875 0.10189063 -0.07618419 -0.033303913
0003f0 33 2c 9a 3d ba 94 81 3d 41 4d 25 3d 77 3a 67 bc
       0.075279616 0.063271955 0.04035688 -0.01411306

features.0.3.bias f4 [16]
000000 22 0a 33 3b c9 35 77 b9 d4 85 a2 ba 04 f8 64 bb
       0.0027319272 -0.00023575792 -0.0012399503 -0.0034937868
000010 38 e9 3c bb 21 00 45 3b 50 39 cc 39 61 5b 21 bb
       -0.0028825533 0.0030059891 0.00038952613 -0.0024621116
000020 71 3d 38 3b a9 24 56 3b 4d 46 fe 3a b0 9d 3d bb
       0.0028112794 0.003267566 0.0019399613 -0.00289331
000030 f5 b6 b1 3a 72 20 a3 ba 2a 60 63 ba 9b 32 5a 3a
       0.0013558554 -0.0012445583 -0.00086736924 0.0008323581

features.0.4.weight f4 [16]
000000 13 9e a0 3f 23 f3 38 3f ea 4d c5 3f 90 53 eb 3e
       1.254824 0.72246 1.5414402 0.4596219
000010 0f 22 94 3f 7b 23 a0 3f ab c2 b9 3f 7a 63 7f 3f
       1.1572894 1.2510828 1.4512533 0.99761164
000020 c5 5f 02 3f 05 43 bb 3f cf 42 95 3f 7a a0 cd 3f
       0.5092738 1.4629828 1.1661013 1.6064599
000030 d3 ef 94 3f f0 41 2f 3f 0d 2c a6 3f 71 35 b3 3f
       1.1635689 0.6845999 1.2982193 1.4000684

features.0.4.bias f4 [16]
000000 f6 c2 71 bf 81 11 e2 be 48 8d 87 bf d4 b3 89 bc
       -0.9443811 -0.4415398 -1.0589991 -0.016809382
000010 c9 e2 76 bf 32 6d 4d bf d2 20 55 bf ab d5 4f bf
       -0.96439797 -0.80244744 -0.83253205 -0.81185406
000020 91 1a c7 bd 5d 9c 9a bf f2 28 0c bf c1 f7 d5 bf
       -0.09721864 -1.2078968 -0.5474998 -1.6716233
000030 36 97 82 bf 8a c5 13 bf b2 5f 99 bf 80 ee b2 bf
       -1.0202396 -0.57723296 -1.1982329 -1.3979034

features.0.4.running_mean f4 [16]
000000 a8 cb 94 c0 9c f7 b7 bf a9 2d 62 c0 be 08 44 bf
       -4.6498604 -1.4372439 -3.5340369 -0.7657584
000010 ed 04 45 c0 b1 d4 2b c0 fa dd 58 c0 24 56 0e c0
       -3.0784256 -2.6848567 -3.3885484 -2.2240076
000020 87 a1 4c bf 41 03 5d c0 5b 5e 38 c0 3b 00 72 c0
       -0.7993397 -3.4533236 -2.880759 -3.781264
000030 0f 83 55 c0 59 03 00 c0 fd 23 4b c0 cf 2c 76 c0
       -3.3361242 -2.0002043 -3.1740716 -3.846485

features.0.4.running_var f4 [16]
000000 6c b7 a8 40 39 a0 c9 3f 36 0e 25 41 87 04 72 3f
       5.2723904 1.5752021 10.315969 0.9453816
000010 d2 6a a0 40 0a 84 a1 40 f1 40 03 41 98 a9 36 40
       5.0130396 5.047368 8.203355 2.8541012
000020 bc a6 62 40 cc 7f f1 40 97 55 ad 40 19 3b e5 40
       3.5414267 7.54685 5.416698 7.163464
000030 0f 04 b5 40 2e 6b fe 3f f9 69 b5 40 c8 f2 e2 40
       5.6567454 1.9876459 5.669186 7.0921364

features.1.0.weight f4 [32, 16, 3, 3]
000000 01 d1 a7 3d b4 75 c6 3d 03 58 11 3e 8c 21 7c bc
       0.08194161 0.09690419 0.1419373 -0.015388858
000010 64 53 47 3d d0 e9 c6 3d fa 23 51 3d 79 e1 1c 3e
       0.048663512 0.09712565 0.0510597 0.15320386
000020 dc c7 f1 3d 11 62 7c bd 77 8f 43 bd 33 1f 94 bc
       0.11805698 -0.06161696 -0.04774424 -0.018081283
000030 2b 86 2f bd c7 5c 84 3c 1d 02 80 3d 47 6a 02 3e
       -0.042852562 0.016157521 0.06250403 0.12735854
000040 56 c1 c6 3b ab 93 0d 3c 8e 2c ab 3d 6e 6a e4 3c
       0.006065528 0.008641164 0.083581075 0.02788278
000050 eb 98 89 3d cf cf fa bd 61 98 15 bd b0 6d 63 bd
       0.0671862 -0.122466676 -0.036522273 -0.055524528
000060 e8 5b c2 bd c6 ec dc 3d 42 77 6c 3c 48 de f0 3d
       -0.09490186 0.107873484 0.01443273 0.11761147
000070 67 a1 e6 3c bb b2 12 3d be c5 34 bd ae 31 15 3c
       0.028153135 0.035814982 -0.044133894 0.009106083
000080 62 a9 5c bd 1d c6 a3 bd 54 ab 33 bd d1 91 5f bb
       -0.053872474 -0.079967715 -0.043864563 -0.0034114013
000090 24 b1 29 be 02 fd b4 bd c8 a7 37 bc 42 4f c3 bd
       -0.1657148 -0.0883732 -0.011209436 -0.095366016
0000a0 81 44 0f 3b a2 8c b9 bc 7e 8e db 3d 17 52 b7 3d
       0.00218609 -0.022650067 0.107205376 0.08951204
0000b0 b2 35 19 3e ec e3 af 3d 30 2e 00 3d d6 ec e0 bc
       0.1496189 0.085883945 0.031294048 -0.027456682
0000c0 2a cc 87 3c 74 f9 eb 3c cb c4 87 bd 2a ae 76 bd
       0.016576845 0.028805472 -0.06629332 -0.06022469
0000d0 0c 22 99 bc 6c c0 89 be 0b e3 4f be df b8 1c be
       -0.018692993 -0.2690462 -0.20301454 -0.15304898
0000e0 f5 c1 94 bd c8 40 af bd da 9c eb 3b 38 6b b4 3d
       -0.07263557 -0.08557278 0.007190329 0.08809513
0000f0 d1 0e 05 3e 90 24 90 3d ee 0c 18 3e 5e 73 70 3d
       0.12993933 0.07038224 0.14848682 0.058703773
000100 4f 90 f8 3d dc e6 25 3e 3b ec 53 bd f3 ee a0 bd
       0.121369 0.16201347 -0.05173896 -0.07858076
000110 26 cf 3d bc c6 6f 76 bd 04 ac 6c 3d 6f 6b 43 bd
       -0.011585033 -0.06016519 0.057781234 -0.04770988
000120 17 e6 2c bd 9b 6e 51 bd da ae 67 bd b5 2c 2a bd
       -0.04221162 -0.051130872 -0.056563236 -0.041546542
000130 ca 74 57 bc 7f a7 5e bc 94 c1 b6 3d c7 a0 9b 3c
       -0.013150403 -0.013589739 0.08923641 0.018997563
000140 cb 1a 0f bc 6f 3b 84 be 88 64 3b be 1d 3b 8c bd
       -0.008734415 -0.25826594 -0.18300068 -0.068472125
000150 86 f2 d2 bd 6a 77 43 bd 95 3e 1c 3c ca 82 fc 3d
       -0.10300164 -0.047721304 0.009536405 0.123296335
000160 b9 e2 15 3e 35 83 49 3e 30 f8 21 3d cd f5 07 3d
       0.14637269 0.19678958 0.03954333 0.0331934
000170 2c eb 17 3d 6a b3 eb 3b 42 80 c7 bc 50 6d 9c bd
       0.03708951 0.0071930187 -0.02435315 -0.07638037
000180 a2 4c 75 3d 35 5a 34 bd e8 dc d6 be 49 87 d8 3d
       0.059887536 -0.04403134 -0.41965413 0.105726786
000190 04 41 e6 3d cd e0 dc 3d 3c 92 32 ba b2 4c 9f bd
       0.112428695 0.10785065 -0.0006811952 -0.077783
0001a0 af d6 a3 bd c4 b1 5a be e1 7d c1 bc ef be 64 bc
       -0.07999932 -0.21356875 -0.023619594 -0.013961538
0001b0 c4 0e 93 bb c4 d5 0b bd 1a 05 31 be 72 5a 3d 3d
       -0.004487844 -0.03413941 -0.17287102 0.046228833
0001c0 7b 43 e2 3c e8 ee 81 bd 14 07 2e 3e 3a 15 81 bd
       0.027620068 -0.06344396 0.16994888 -0.06302877
0001d0 86 be 11 be fa 7f fd 3d ed b3 43 3d a3 db 8a 3d
       -0.14232835 0.12377925 0.047779012 0.06780174
0001e0 ee 99 5f 3d 67 70 83 ba ea 53 c6 3c f0 30 29 bd
       0.05459016 -0.0010028005 0.024209935 -0.041306436
0001f0 31 56 27 bd e1 b2 d3 bd b4 c9 75 bd 7c da 96 bd
       -0.040853683 -0.10336853 -0.060006812 -0.07365891
000200 57 40 47 be d1 1e 7e bd 19 13 38 3d c4 89 d7 bc
       -0.19458137 -0.062041108 0.044940088 -0.026310809
000210 4a 77 92 3d a3 12 da 3c 58 23 83 3c bc c6 5e bd
       0.07151659 0.026620215 0.016008064 -0.054388747
000220 b3 52 7c bc 5d a1 3c be b0 1a ee bc d8 74 28 3d
       -0.015400576 -0.1842093 -0.02906546 0.041127056
000230 af de 2a be 28 64 26 3e b3 9d 01 bd 5e d8 cf bd
       -0.1668651 0.16249144 -0.031644534 -0.10148691
000240 9d ab 3a 3e 37 98 9c 3d c6 22 a5 3d 91 2b d8 3d
       0.18229528 0.0764622 0.08063273 0.10555185
000250 2f 5d 24 3c dc 7b 08 3d a0 25 f4 3d ee a3 4d 3d
       0.010031982 0.033321247 0.11921239 0.050205164
000260 50 5b 20 3d 18 4b e6 bc 90 2e 01 be 87 2f aa 3c
       0.039149582 -0.02811198 -0.12615418 0.020774616
000270 29 19 aa bd 83 7b 73 bd 43 c7 f5 3d 30 c4 ad 3c
       -0.0830558 -0.05944396 0.12000897 0.021211714
000280 68 fa cc 3d 51 bb 42 3e 67 5f 5c 3e 6a 7b 3b 3e
       0.10008699 0.19016768 0.21520768 0.18308797
000290 6e fb 17 3e 62 1a 90 bc d8 0d 20 be ea 0e 20 be
       0.14842007 -0.017590705 -0.15630281 -0.1563069
0002a0 93 db 72 bd 7c 0f 21 be 52 c6 f2 bc d5 f5 04 3e
       -0.059291434 -0.15728563 -0.029635582 0.12984402
0002b0 c4 5c 00 3d bb 8a 77 3d 99 3f f3 3b e5 b6 aa bd
       0.03133847 0.060435038 0.007423353 -0.083356656
0002c0 9e b7 93 3d 23 a5 a2 bc c3 22 63 3c 5b 29 25 3d
       0.072127566 -0.019854134 0.013863268 0.040322643
0002d0 f8 d4 62 3e fe 5a e2 bd d4 f9 18 be 90 e3 45 bc
       0.22151554 -0.11052512 -0.14939052 -0.012078181
0002e0 f5 83 97 be 55 fb c5 3c c3 32 8c 3b 7d 64 17 be
       -0.29592863 0.024167696 0.004278512 -0.14784427
0002f0 e1 bc 42 3e 72 c8 b5 bd c5 65 ac 3d 02 5c c1 3d
       0.19017364 -0.088761225 0.084178485 0.09441377
000300 3f e2 f9 bc 04 75 69 3d 9a 5e 96 3d 22 95 11 bc
       -0.03050339 0.05699636 0.073422626 -0.008885654
000310 9e e4 30 bd 2c c0 9d bd de 7c 06 3e ee 96 2f be
       -0.043186776 -0.077026695 0.1313357 -0.17147419
000320 06 a7 11 be 06 57 0d be 9f 84 3c be 53 2b ad 3d
       -0.1422387 -0.13802728 -0.18409966 0.08455529
000330 0b b1 a5 bd 8c d0 61 bd 6c ce 45 3e b3 ec 0f 3e
       -0.08090409 -0.055130526 0.19317025 0.14055137
000340 9c 10 dc 3d 7d 45 8f 3d 7f ed 89 3d 60 2d b0 bd
       0.107453555 0.06995676 0.06734752 -0.086024046
000350 2e ce f0 bc 30 00 3a bd a6 16 d5 bc c1 53 cd bc
       -0.02939519 -0.045410335 -0.026011776 -0.025064351
000360 87 d9 c5 3b 90 af 88 bd c1 26 b9 bd 15 1c ea bd
       0.006037894 -0.06674111 -0.09040595 -0.114311375
000370 2e 1d 1d be ab ec 3a 3c 91 7f f7 bd 14 01 b5 bc
       -0.15343162 0.011408965 -0.12084878 -0.02209524
000380 fd 20 cd 3d 2a 4f 21 3e 74 4e d8 bd 1a 4d a3 bd
       0.10016058 0.15752855 -0.10561839 -0.0797369
000390 19 53 fc bd 50 8f 77 be e2 7a c3 3d 84 71 02 3d
       -0.12320537 -0.24175763 0.095449224 0.03184654
0003a0 ff 5e 93 bc 9a fb 8d 3e 2f f5 49 3d 3e 7f d5 bb
       -0.017989634 0.2773102 0.04930609 -0.0065154126
0003b0 d5 84 16 3e 95 96 d8 3c 2f 2f a2 bd 70 2a b3 3c
       0.14699109 0.02643899 -0.07919156 0.021870822
0003c0 11 f3 c5 bd b0 c2 09 be 34 fb 07 be 09 16 5b 3d
       -0.09665502 -0.13453174 -0.1327942 0.05348781
0003d0 e9 f7 e9 3d 61 01 1e 3e 87 72 63 3c c9 68 c1 bd
       0.11424238 0.15430214 0.013882286 -0.09443814
0003e0 55 8c 46 bd 0c 81 6a 3d 22 a0 85 bd 9c 2f c8 bd
       -0.048473675 0.057251975 -0.065246835 -0.09774706
0003f0 b1 5f b0 3d 34 7a a2 bd a1 0d c6 bc 52 d7 c8 3d
       0.08612002 -0.07933465 -0.02417642 0.09806694

features.1.0.bias f4 [32]
000000 a8 f6 b2 ba f9 85 1e bb 24 79 30 bb 66 44 5b 3b
       -0.0013653832 -0.002418874 -0.0026927674 0.0033457517
000010 60 cf ee 39 b0 82 30 3b 4d 62 ec 3a 02 7e 65 3a
       0.00045549404 0.0026933365 0.0018034667 0.00087544334
000020 04 74 4e bb 62 db f3 39 7a 75 4d ba e8 27 65 3b
       -0.0031502256 0.00046512025 -0.0007837635 0.0034966413
000030 7b 44 2d bb 74 ca 1f 3b 72 60 a9 ba 60 da 73 ba
       -0.0026438523 0.0024382146 -0.001292242 -0.0009302255
000040 8f db 62 3b f7 84 d4 b9 a7 98 5f 3b 88 ea d2 ba
       0.003461573 -0.00040534858 0.0034118087 -0.0016091624
000050 6d fc 16 bb 90 4b 25 bb a8 cf 89 ba 28 a2 47 3b
       -0.002303864 -0.002522204 -0.0010514157 0.0030461643
000060 9a bb 7f ba 15 3f 9f 3a 8e 19 11 ba 57 7d 34 3a
       -0.0009755433 0.0012149537 -0.0005535119 0.0006885132
000070 64 04 dd 3a 99 6b be ba 7e 90 cf ba 82 e3 aa ba
       0.001686227 -0.0014527916 -0.0015835909 -0.0013037773

features.1.1.weight f4 [32]
000000 35 76 38 3f 36 50 41 3f e0 96 42 3f 64 e2 57 3f
       0.7205537 0.7551302 0.76011467 0.8432982
000010 96 70 3a 3f 97 89 3f 3f eb 15 64 3f fb 67 3d 3f
       0.7282804 0.7481932 0.89095944 0.73986787
000020 64 00 81 3f 7a f7 58 3f ac 13 5b 3f 2c 98 67 3f
       1.0078244 0.8475262 0.8557689 0.9046657
000030 d8 e8 82 3f 79 99 51 3f 2d f7 76 3f 7d f5 3a 3f
       1.0227308 0.81874806 0.9647091 0.73030835
000040 2d bc 69 3f 76 23 35 3f 3a 0e 57 3f 92 62 49 3f
       0.9130276 0.70757234 0.84006083 0.7866603
000050 80 15 4b 3f ea 67 41 3f 0b db 82 3f 7d 3e 40 3f
       0.7932968 0.75549185 1.0223097 0.7509535
000060 c0 43 45 3f a2 45 6c 3f 2f 37 5b 3f b3 88 82 3f
       0.77056503 0.9229375 0.8563108 1.0197967
000070 39 cf 71 3f 41 9c 6e 3f 2b 04 40 3f 7f fa 51 3f
       0.9445682 0.93207175 0.7500636 0.8202285

features.1.1.bias f4 [32]
000000 9f b7 eb be c9 94 37 bf 2f 11 5a bf c6 d2 12 bf
       -0.4603853 -0.71711403 -0.8518247 -0.57352865
000010 9d fa 2c bf 90 91 0a bf 64 99 42 bf 50 62 60 bf
       -0.67569906 -0.5412836 -0.76015306 -0.8765001
000020 29 0b 39 bf 4b ce 2a bf ae 29 3e bf 24 a2 6f bf
       -0.72282654 -0.6672103 -0.7428235 -0.9360678
000030 a5 17 50 bf 39 f2 14 bf ac d5 50 bf aa a6 26 bf
       -0.8128608 -0.581821 -0.8157604 -0.6509806
000040 bb 51 67 bf 68 1b 07 bf 8c 0b 18 bf ae 44 e5 be
       -0.90359086 -0.52776194 -0.5939262 -0.4477896
000050 15 5c 4a bf d5 28 51 bf 38 b7 1d bf 8b a5 19 bf
       -0.79046756 -0.8170293 -0.61607695 -0.60018224
000060 9e db 33 bf 11 03 60 bf 5d a5 37 bf f4 33 5e bf
       -0.70256984 -0.8750468 -0.717367 -0.86798024
000070 2c c9 24 bf e0 2f 2c bf 38 f3 15 bf 81 e1 49 bf
       -0.64369464 -0.6726055 -0.5857425 -0.78859717

features.1.1.running_mean f4 [32]
000000 ff 6c b2 bd 8c 68 c1 bd 2f 47 b0 bd 9d 60 69 bd
       -0.087121956 -0.09443769 -0.08607327 -0.056976903
000010 f1 ab 3d be fc e4 47 3c a0 db e1 bd 88 94 2e be
       -0.18522622 0.01220059 -0.11028218 -0.17048848
000020 e1 cc f4 bd c6 69 f0 bd c5 76 e6 bd 1c 9b 31 be
       -0.1195314 -0.11738925 -0.11253122 -0.17344326
000030 c5 89 09 be 49 7f 93 bc 7c 0b 5a be b3 15 c5 bd
       -0.13431461 -0.01800503 -0.21293443 -0.096232794
000040 09 43 38 be 5b d0 17 bd 5f 24 87 bd 31 06 2a be
       -0.17994322 -0.037063938 -0.06598734 -0.16603924
000050 f1 1b 0a be f0 0b 27 bd 90 ec 70 bd b5 d5 ed bd
       -0.13487221 -0.04078287 -0.058819354 -0.11613027
000060 ca 86 b7 bd 04 e5 62 be 5b c0 f7 bd 05 a7 3d be
       -0.08961256 -0.22157675 -0.12097236 -0.18520744
000070 8a e2 35 be 11 d8 64 be ea 9c 63 be db d9 00 be
       -0.17762199 -0.22348048 -0.22227827 -0.12583105

features.1.1.running_var f4 [32]
000000 5a 5d 6e 3e 39 45 60 3e 53 85 3e 3e ab 15 89 3e
       0.23277798 0.21901406 0.18605547 0.26774344
000010 9a b5 62 3e aa 2a 7c 3e 1e de a9 3e 3b c8 8e 3e
       0.22139588 0.2462565 0.33177274 0.2788714
000020 9b d7 ad 3e b0 c6 6b 3e 59 6d b8 3e 17 1a fa 3e
       0.33953556 0.23025012 0.36020926 0.4884803
000030 36 c2 83 3e 8b f6 84 3e 32 a9 f6 3e 52 e2 8d 3e
       0.2573411 0.25969347 0.4817596 0.2771173
000040 be 4e 67 3e 87 48 82 3e fd 03 d8 3e 24 73 26 3e
       0.22588632 0.2544596 0.42190543 0.1625486
000050 5c c6 52 3e 75 f3 5c 3e 2a 90 96 3e 57 a0 23 3e
       0.2058348 0.21577246 0.29406863 0.15979134
000060 1c dc 5a 3e 7c 6c c1 3e 03 fc d3 3e e3 12 b8 3e
       0.21373028 0.3777808 0.41403207 0.3595191
000070 e6 1c 24 3e 5d 8f 7b 3e 89 60 6f 3e 77 7f be 3e
       0.16026649 0.24566408 0.23376669 0.37206623

features.1.3.weight f4 [32, 32, 3, 3]
000000 e7 c5 6d 3d f9 ed 1c 3d 9c d4 08 3d d5 75 d4 3c
       0.058050063 0.038312886 0.033405885 0.025935093
000010 c3 0f 5c bc e7 7d 31 bd 13 bb d6 3c 11 04 a4 bc
       -0.013431492 -0.04333296 0.02621225 -0.02002147
000020 fa 20 73 be d6 88 35 3e 94 a2 1e 3d e1 c2 9d bc
       -0.23743048 0.1772798 0.038729265 -0.019257965
000030 b2 84 17 3d 49 b5 25 bc 8b 70 01 be 76 a4 a8 3d
       0.036991782 -0.0101140225 -0.12640588 0.082344934
000040 61 df 26 bd f5 8d 9e bd f7 a0 4a bd 09 ce 4a bd
       -0.040740374 -0.0774192 -0.049469914 -0.049512897
000050 06 34 59 3d a0 58 47 bc 28 0b 00 3d c2 e4 df 3c
       0.05302813 -0.012167126 0.03126064 0.02733076
000060 6f 86 91 3d 59 dd 53 3d 15 fd 26 3d 87 d3 04 bd
       0.07105719 0.051724765 0.0407687 -0.03242829
000070 a5 a7 8e 3c 9c 55 62 3d da 14 a2 bd ab 29 d7 3d
       0.017413924 0.055257425 -0.07914133 0.105059944
000080 c7 89 29 3e 10 64 51 be 11 e5 3f bd 3d f8 02 3e
       0.16556464 -0.20448327 -0.046849314 0.12790008
000090 b0 39 52 bd e2 4c af bc d2 9a e1 bd 7d 7d 7a 39
       -0.051324546 -0.021398965 -0.11015858 0.00023888606
0000a0 df 21 e7 3c f7 10 9d bd 12 4d a5 3c cb ab 3f 3d
       0.028214393 -0.076692514 0.020178352 0.046794694
0000b0 67 6f 20 3d 18 e4 b3 3c 92 b7 a4 3d 3e 44 a7 3c
       0.03916874 0.02195935 0.08042826 0.020418283
0000c0 3f 3b 14 bd 71 c1 09 3d a5 96 f1 bc 95 71 d4 3b
       -0.036189314 0.033631746 -0.029490778 0.0064832666
0000d0 2b c6 96 3c c6 78 3a bd bd 9c c8 3d fc 79 bb bd
       0.01840504 -0.045525335 0.097955205 -0.09154126
0000e0 52 e7 eb bd e6 b2 31 3c 17 39 76 3d 69 43 63 3d
       -0.1151873 0.010845875 0.06011304 0.05548421
0000f0 77 a6 20 bd b0 2b 85 bd 96 31 45 bd eb 1d a5 3d
       -0.039221253 -0.06502473 -0.048142992 0.08062347
000100 fc 95 8f bd 80 eb 66 3d 02 90 80 bd 2c 4a d3 bc
       -0.07011029 0.056376934 -0.06277467 -0.025792204
000110 11 b4 99 3d 83 39 6c bd 66 74 87 3d 0c 65 92 3d
       0.07505048 -0.057672035 0.06613998 0.071481794
000120 42 98 10 be e8 3f 8c 3d b4 10 72 3d 76 d5 af bd
       -0.14120582 0.06848127 0.05909796 -0.08585636
000130 9a 21 e1 3d f1 32 97 3c 75 ea d3 bd 2d c0 d6 bd
       0.10992737 0.018456908 -0.103474535 -0.10485873
000140 55 62 df bd af 03 93 bd 1e 74 12 3d 22 cf 94 bd
       -0.10907427 -0.07178437 0.03575527 -0.0726607
000150 9f 3b cd 3b 0b 35 06 3e f0 d7 a3 bd 71 02 04 3c
       0.006263211 0.13106172 -0.08000171 0.008057223
000160 75 0f 8b 3d f3 ec 72 3d 93 c4 a3 bd cb cd 49 3b
       0.067900576 0.059308004 -0.07996478 0.0030792828
000170 3e 57 71 bd 7d f7 8d 3c e8 ed 75 bd f9 65 88 bc
       -0.05892109 0.017329926 -0.06004134 -0.016650187
000180 5a 29 2f 3c 97 a2 e8 bd 6b 28 8e 3c 22 20 3b 3e
       0.010691011 -0.113591366 0.017353257 0.18273976
000190 28 df a6 3d 82 65 11 bd b4 82 c0 3d b3 5a 89 bd
       0.081480324 -0.035497196 0.0939993 -0.06706753
0001a0 03 2c 6e 3d eb a1 5d 3e b5 5e 38 3e c0 56 4f 3e
       0.05814744 0.21643798 0.18004878 0.20247936
0001b0 20 b9 db bd 31 a2 0c 3d 70 d6 16 3d 68 2b 57 bd
       -0.10728669 0.034334365 0.036825597 -0.05253163
0001c0 38 f5 b0 3c 09 8e 6f 3d c2 02 a5 bd 56 9f 5e bd
       0.021601304 0.058485065 -0.08057167 -0.054351173
0001d0 e0 bf 62 3d 2a 43 99 3d 54 0e 42 3d 35 13 96 bd
       0.055358768 0.07483514 0.047376946 -0.07327882
0001e0 f7 cd c1 3d 00 27 95 3d 43 b2 79 3d 8a be 40 3d
       0.09463113 0.07282829 0.06096102 0.047056712
0001f0 c6 a9 01 3d d7 0e 94 3a c0 0e 17 3d d8 84 2e bd
       0.03165605 0.0011295927 0.0368793 -0.04260716
000200 3a 0a 1b 3d 80 cd c8 3c 13 7c c4 3c d7 64 a7 3c
       0.03785155 0.024512053 0.023984944 0.020433826
000210 e6 19 9f bc f2 a9 34 3d b5 f1 d5 bc 8c c2 62 3d
       -0.019421529 0.044107385 -0.026116231 0.055361316
000220 a9 e4 7c bd f4 c0 46 bd 5b 87 22 3b dc 0a 94 3c
       -0.061741505 -0.04852386 0.0024799916 0.018071584
000230 26 85 48 3c ce 37 39 3d 5e 59 89 bb 8a 6b 2f bb
       0.012238776 0.045219235 -0.0041915616 -0.002676698
000240 77 7c 99 3a e4 01 97 3d 16 47 f6 bc 98 ee ef 3b
       0.0011710067 0.073734075 -0.030063193 0.0073221438
000250 ac 59 ca 3d b8 a4 65 3d f2 bd e6 3b 4d cb a2 3d
       0.09880385 0.05606529 0.007041686 0.07948933
000260 76 e3 ce bd 14 55 c2 bd dc f1 df bb 7e 31 9e bd
       -0.101019785 -0.094888836 -0.006834252 -0.07724284
000270 2c 31 a7 bd 12 d4 2e bd f7 14 5f bc 32 69 8c 3d
       -0.08163676 -0.042682715 -0.013615838 0.06856002
000280 e5 2a e2 3c 2e 03 98 3d ad cc 03 3e 76 d7 ba 3d
       0.027608344 0.074224815 0.12871046 0.09123127
000290 4e 6e fc bd cf 82 11 be e5 77 3b 3d a4 11 83 3d
       -0.123257264 -0.14210056 0.045768637 0.06399849
0002a0 98 72 1b 3e 37 61 8e bc fa f0 3f be 4d 04 c8 3c
       0.15180433 -0.01738034 -0.18744269 0.024416113
0002b0 c3 ce 5a 3c 7b bb 46 bd 75 d8 d0 3d 6a b4 6f 3d
       0.01335496 -0.04851864 0.10197536 0.058521666
0002c0 9e 42 93 bd d6 5b ba 3d 8e ae 16 3c 25 d3 1c be
       -0.071904406 0.090995476 0.0091968905 -0.1531492
0002d0 7b 02 0b 3d 33 0d 80 bc 1f aa 1a bc 0b 29 03 3e
       0.033937912 -0.015631294 -0.009439974 0.12808625
0002e0 98 a9 26 3d a4 88 61 bd 5e f7 3f 3e ce 3b 6f 3d
       0.04068908 -0.05506195 0.18746707 0.058406644
0002f0 a3 10 51 bd 00 85 df 3d dc be 49 3d c5 24 df 3c
       -0.051041257 0.109140396 0.049254283 0.027239213
000300 c3 48 12 bd 8d f1 48 bd 12 b4 8f bd ac 36 19 bc
       -0.035713922 -0.049058486 -0.070167676 -0.009351414
000310 15 df 84 bd 94 64 24 bd 19 03 f6 bb c6 79 85 3b
       -0.06487862 -0.04013498 -0.0075076935 0.0040733544
000320 36 ee 4d bd 20 79 f7 3d c1 83 4b 3d 89 d7 82 bd
       -0.050276004 0.1208365 0.049686197 -0.06388766
000330 91 24 89 3d 13 f2 4e 3a 8b 3e ac bd 4a 34 74 bd
       0.066964276 0.0007894348 -0.084103666 -0.05962018
000340 94 26 88 bd 2e ef 48 bc 41 91 d5 bd 3b a4 9a bb
       -0.06647983 -0.012264056 -0.104280956 -0.004719285
000350 9e d8 d3 3d 78 ff 63 bd b5 5e 50 bd d3 5f dc 3c
       0.10344051 -0.055663556 -0.05087157 0.026901161
000360 be 80 78 be d9 73 c7 3b ec e3 de 3d 4d f1 2d be
       -0.24267861 0.006086808 0.108833164 -0.1698658
000370 03 6a 7f 3d d5 b7 25 3c a8 66 5e bd 58 f7 98 3c
       0.06235696 0.01011463 -0.05429712 0.01867263
000380 2a 80 a7 3c 9f 4e 6b be e6 b6 9d bd 58 ef 4a bd
       0.020446856 -0.2297921 -0.07700901 -0.049544662
000390 fc 45 41 bd 2e 6a 37 3d 75 88 a3 3d 5a b7 9c 3d
       -0.047185883 0.044778995 0.079850115 0.07652159
0003a0 dd 15 f3 3b 01 e6 6d 3d 20 35 da 3c 8d c0 09 3c
       0.007418378 0.058080677 0.02663666 0.008407724
0003b0 60 4c 51 3d a2 5d 27 3d 14 21 e1 bb 68 83 bb bc
       0.051098228 0.04086078 -0.0068703983 -0.022889808
0003c0 ca 30 f7 bc ac f3 1d bd 36 f5 76 bd 1a b1 3b be
       -0.030174632 -0.03856246 -0.060292445 -0.18329278
0003d0 f9 64 6e 3d 1c c9 07 bc 04 62 80 be 31 a6 f5 bc
       0.058201764 -0.008287694 -0.2507478 -0.029986473
0003e0 38 66 1c 3d 29 11 34 bd 71 88 03 3e 46 67 57 3e
       0.03818342 -0.043961678 0.12845017 0.2103549
0003f0 e2 53 64 bd 37 b9 89 3d d8 fe 87 3c a9 97 e1 bc
       -0.05574406 0.0672478 0.016601011 -0.027538138

features.1.3.bias f4 [32]
000000 fb 52 e9 3a e2 fb 03 3b bc 92 86 ba f9 3b 2a 3a
       0.0017801219 0.0020139148 -0.0010267119 0.0006493922
000010 6b 43 13 3b 58 b2 80 3a 6b 58 a0 ba 9d a8 fc 3a
       0.0022470604 0.0009818776 -0.0012233382 0.0019276325
000020 41 df b8 ba 4b 2d 3b 3a 26 1e ec 3a 36 9c 10 bb
       -0.0014104621 0.0007140233 0.0018014356 -0.0022065765
000030 d0 e4 73 b9 aa e0 e8 3a eb 29 87 3a 0e 81 53 3a
       -0.00023259525 0.001776715 0.0010312175 0.0008068242
000040 06 fa 3b ba c5 df 8c ba ec 4b bb ba a9 d0 1a bb
       -0.000717074 -0.0010747841 -0.0014289594 -0.0023622906
000050 59 1c ea ba ca 2f dc 3a 12 87 bb 3a 6e 70 f1 b9
       -0.0017861231 0.001679891 0.0014307222 -0.0004605087
000060 c4 59 c6 b9 dd 3e b0 ba 70 e3 26 3a b3 ce b8 3a
       -0.00037832384 -0.0013446469 0.0006366288 0.0014099687
000070 80 e3 e3 b8 c5 d1 24 3a 0a 6c c0 3a ee d7 cf ba
       -0.00010866579 0.00062873616 0.0014680636 -0.0015857199

features.1.4.weight f4 [32]
000000 b6 06 0e 40 31 13 1a 40 da 98 ed 3f a3 24 02 40
       2.2191596 2.4074214 1.8562272 2.0334861
000010 c4 17 e8 3f 08 46 0a 40 8c ce e6 3f 01 47 0a 40
       1.8132253 2.1605244 1.8031783 2.1605837
000020 b7 35 ef 3f 89 99 15 40 71 ee 25 40 ba b2 d1 3f
       1.8688267 2.337496 2.5926783 1.6382668
000030 16 c4 0f 40 9f 0c 03 40 bc 3b 01 40 c3 0f 11 40
       2.2463431 2.0476453 2.019271 2.266587
000040 ba ca fe 3f f1 2a 18 40 ba b6 07 40 51 94 ef 3f
       1.9905617 2.377621 2.1205277 1.8717138
000050 d4 eb ff 3f 5e a4 c0 3f 90 32 9c 3f 3d ec 03 40
       1.9993844 1.5050161 1.220293 2.0612938
000060 ce 75 19 40 a5 a6 d9 3f 30 81 13 40 5d ec d6 3f
       2.3978152 1.7003981 2.30476 1.6790882
000070 11 0d ea 3f 3e 2b 13 40 24 06 03 40 46 12 ae 3f
       1.8285238 2.2995143 2.0472498 1.3599327

features.1.4.bias f4 [32]
000000 92 54 95 be 2d a4 28 bf 93 3c 1a be a8 6f 98 be
       -0.29166085 -0.6587551 -0.1506217 -0.29772687
000010 5d a2 0f be b5 32 02 bd 29 35 c2 be 46 53 b1 be
       -0.1402678 -0.03178664 -0.37931183 -0.34633845
000020 17 91 6f bd 6f 72 a4 be 66 30 12 bf 50 24 88 be
       -0.058487978 -0.32118556 -0.571051 -0.26590204
000030 fa 36 ca bd 45 ed 20 be 2b d6 99 3b d0 a8 3d be
       -0.09873767 -0.15715511 0.0046947203 -0.18521428
000040 85 a0 de bc ad 3f c5 be bd 53 c7 be e4 f5 85 3d
       -0.027176151 -0.38525143 -0.38931075 0.065410405
000050 5a 0d 35 bd 93 c0 03 bd 78 4f 08 3e 77 b2 71 bb
       -0.044202186 -0.032166075 0.13311565 -0.0036880055
000060 47 e5 ec bd 68 7c bb 3d 01 e6 23 be 0b cc 02 3e
       -0.11567169 0.09154588 -0.16005708 0.12773149
000070 be 36 97 bd 83 f0 4c be f4 b0 73 be 4e 35 15 bd
       -0.07383488 -0.20013623 -0.23797971 -0.03642779

features.1.4.running_mean f4 [32]
000000 01 7f ae bd 27 b9 09 3d 33 1c 0e 3e 0c 89 86 3d
       -0.08520318 0.03362384 0.13877945 0.06569108
000010 72 d6 25 3d 8a 3f ca bd 54 0c 8a bc 38 4c c2 bd
       0.040487714 -0.098754 -0.016851582 -0.09487194
000020 41 bb b8 b9 17 85 9d 3d b5 41 07 3e 9c 76 93 3d
       -0.0003523473 0.076914005 0.13208659 0.07200357
000030 f2 10 88 3d ff 2a 43 3c 52 41 b2 3d 39 f5 56 3c
       0.06643857 0.011912107 0.08703865 0.013119989
000040 01 5f 33 3e 87 c2 dc 3d ce f4 ed bc 50 0b 82 bd
       0.1751671 0.10779291 -0.029047396 -0.06349814
000050 db 46 ac 3d e6 a4 a6 3b a8 99 03 3d 62 5d 48 3e
       0.08411952 0.0050855754 0.03212896 0.19566873
000060 63 7c ce 3d b7 49 de bd 78 1e 03 3e 68 62 2b 3c
       0.10082319 -0.10853904 0.12804592 0.010460474
000070 ab 3f 32 3d 90 d0 9b bc 70 63 b9 3c fa 57 bb bd
       0.04351775 -0.019020349 0.022630423 -0.091476396

features.1.4.running_var f4 [32]
000000 a9 e8 c3 3d 0c 58 e4 3d b5 87 96 3d 1d 46 a8 3d
       0.09565861 0.11149606 0.07350103 0.08216498
000010 29 81 89 3d 83 4a e9 3d fd 78 89 3d 63 18 e4 3d
       0.067140885 0.11391165 0.0671253 0.11137464
000020 25 d8 9d 3d e4 a3 0d 3e 8b 10 3a 3e 7d f2 8a 3d
       0.07707242 0.1383205 0.18170373 0.06784532
000030 8d 2d e2 3d a8 f9 c1 3d 70 a5 91 3d d9 1a e0 3d
       0.11043844 0.09471446 0.07111633 0.10942621
000040 23 a8 98 3d 91 3e 25 3e bc 95 d9 3d 73 13 83 3d
       0.074539445 0.16137148 0.10624263 0.06400194
000050 b2 9b da 3d 24 4e 35 3d 53 51 c2 3c 8d 36 b2 3d
       0.10674228 0.044263974 0.023720419 0.08701811
000060 06 01 1c 3e 40 96 87 3d f7 ad 10 3e ea 37 74 3d
       0.15234765 0.06620455 0.14128862 0.059623636
000070 08 39 94 3d 86 c1 f9 3d fb 86 da 3d b1 78 11 3d
       0.0723744 0.12195115 0.10670277 0.03551549

classifier.1.weight f4 [10, 32]
000000 a1 e0 b8 3f 53 73 f1 be 6a 28 26 bf 5f b5 c6 be
       1.4443551 -0.47158298 -0.64905417 -0.3881025
000010 3f ec 36 3f d8 f4 d1 3d 89 50 46 bf 46 51 a8 be
       0.7145423 0.10251778 -0.77466637 -0.32874507
000020 1c 63 84 3f 4f 22 8c 3d 03 e7 3a 3f 11 29 d0 bd
       1.0342746 0.06842481 0.73008746 -0.10164083
000030 8a b1 32 bf 02 0a 01 bf 66 f5 a7 be 77 5a 29 bf
       -0.69802153 -0.50405896 -0.32804412 -0.66153663
000040 75 13 44 3f d6 26 1e bf 12 88 66 bf 90 98 87 bc
       0.7659219 -0.6177801 -0.90051377 -0.01655224
000050 e4 76 8a 3f 18 c7 c2 be 83 6b 24 bf 3e 06 10 3f
       1.0817533 -0.3804252 -0.6422655 0.56259525
000060 fa 2d 45 3f b1 74 40 bf c1 46 50 3e 0e 00 66 be
       0.7702328 -0.75178057 0.2033949 -0.22460958
000070 12 bf 05 bf 12 48 0c 3e 22 d3 08 3f 23 d2 15 bd
       -0.52244675 0.13699368 0.53447163 -0.036577355
000080 2f c2 f3 be ea 7a 61 bf 18 da 2e 3f 15 d6 8f 3e
       -0.47609088 -0.88078177 0.68301535 0.2809302
000090 c1 fd 93 bc 9c 44 43 bd af 2f 4a be 98 db 6b 3e
       -0.018065335 -0.047672853 -0.19744752 0.23032987
0000a0 ee 7c ca bd 62 65 00 bf e8 ff 6e bf 9b 01 3c 3d
       -0.0988711 -0.501547 -0.9335923 0.04589997
0000b0 03 4d 20 3d b0 77 53 bf 20 56 8a be 40 5c 80 be
       0.039135944 -0.82604504 -0.27018833 -0.2507038
0000c0 4f cc 88 3f 92 b2 ff be ee 27 31 3e dc 9a 4e 3f
       1.068735 -0.49940926 0.17300388 0.80705047
0000d0 86 37 ab 3e a4 6a 03 be 4e ad 3b 3f 37 25 5b 3f
       0.334408 -0.12833649 0.73311317 0.8560366
0000e0 e4 23 46 bf c1 39 96 3f 2a 36 04 bf 2d 22 ca 3e
       -0.77398515 1.1736375 -0.5164515 0.394792
0000f0 f9 55 96 be 4b 40 cf be 24 e9 74 bf 4b 47 50 3f
       -0.29362467 -0.4047874 -0.95668244 0.81358784
000100 af a9 0e bf 1c f3 83 bd c6 db f6 3e 57 e8 8d bf
       -0.55727667 -0.06442854 0.4821455 -1.108653
000110 20 4d 41 3f 94 54 90 3f 1f 4b cc be 0f 7e cb 3f
       0.7550831 1.1275811 -0.39901063 1.5897845
000120 5a 54 17 3e 78 45 4e bf c3 16 bf 3e 41 b1 ca be
       0.14778271 -0.8057475 0.37322053 -0.3958836
000130 72 ff 1e 3f d2 06 56 bf 92 36 1f bf 12 d0 84 3f
       0.6210853 -0.83604157 -0.6219264 1.0375998
000140 19 69 76 bf 15 06 1a bf 95 9c 95 3e 71 15 85 3d
       -0.96254116 -0.6016553 0.29221025 0.0649823
000150 09 0f 1e bf 2d ae 9c bd 3b a0 a5 be 71 1a be bd
       -0.6174169 -0.07650409 -0.3234881 -0.09282387
000160 25 0a 24 3f af 8f 29 be 18 4b 81 3f b2 09 f0 3c
       0.6407798 -0.16558717 1.0101042 0.029301498
000170 44 13 ae be 55 d5 27 bf 8e b1 7e 3f 7f 69 e3 be
       -0.33999074 -0.65559894 0.99489677 -0.44416425
000180 9c 33 cd 3d 8b 3d ed be 53 6f 54 3e 66 15 5f be
       0.10019609 -0.46336016 0.20745592 -0.21785507
000190 6a f2 80 be d9 31 e3 be 44 d6 31 be c7 d9 0b bf
       -0.25184947 -0.44373968 -0.17366892 -0.54629177
0001a0 cc 8f 23 3e b4 22 49 be 49 44 58 bf 27 33 55 bf
       0.15972823 -0.19642144 -0.84479195 -0.8328118
0001b0 a4 32 5a 3f db 71 35 3e 87 37 bc 3f 46 d0 ad 3f
       0.8523352 0.17719214 1.4704446 1.3579185
0001c0 e2 b7 99 be 1d 17 c5 3f 96 0d 18 3e 99 0a 07 3e
       -0.30023104 1.5397679 0.14848933 0.13187636
0001d0 5b e2 1b 3f c4 f2 72 be e0 ce 80 be b0 7b 93 bf
       0.60892266 -0.2372542 -0.25157833 -1.1522121
0001e0 7b 07 34 3f 96 a0 e1 bd 3b fb 12 bf 1b b2 31 bf
       0.70323914 -0.110169575 -0.574146 -0.6941239
0001f0 72 43 ad 3e 95 b8 90 bf c5 eb a7 be f6 9d cd 3e
       0.3384052 -1.130633 -0.32797065 0.40159577
000200 d4 3f 4d 3e 60 a2 77 3f 60 19 58 3f 6c 20 29 3e
       0.2004388 0.9673214 0.8441372 0.16516274
000210 51 f3 0a bf c6 fc 59 3c b1 14 1d 3e 87 e3 07 3f
       -0.5427752 0.013304895 0.15339924 0.53081554
000220 83 e6 72 bf 26 8c 6b bf c8 c8 22 bf d4 db ce 3d
       -0.9488298 -0.92010725 -0.6358762 0.10100523
000230 12 ac 9b 3e 0e 7e 2f 3f 5c 62 5b be 27 65 2b bf
       0.30404717 0.6855172 -0.2142424 -0.6695122
000240 f2 31 cb be 84 fc bc be 66 18 0b 3f 74 20 17 3f
       -0.39686543 -0.36911404 0.54334104 0.59033895
000250 79 22 1d 3d e4 8c ee 3e 46 7c 27 be d9 9c 7f 3f
       0.038362954 0.46591866 -0.16356 0.99848706
000260 ae c2 ce bf e4 87 32 bf 50 55 9f be d7 9d cf be
       -1.6153162 -0.697386 -0.31119776 -0.4055011
000270 54 ea c8 3e cb 00 d3 3f 47 ac 20 bf cc 4a 59 bd
       0.39241278 1.6484617 -0.62762874 -0.053049847
000280 b8 e3 07 bd 51 51 0f 3f 49 16 d3 be 5c 92 64 3f
       -0.033176154 0.55983454 -0.4122794 0.89285827
000290 12 0e 5d be 18 8e 2e 3e 7d 49 ad 3f 15 d5 43 be
       -0.21587399 0.17046392 1.3538052 -0.19124253
0002a0 71 3f 07 3e 76 98 da 3f 3c 18 da be 17 dd e6 be
       0.13207795 1.7077777 -0.42596614 -0.45090553
0002b0 b8 4a 89 bf 14 41 d0 ba 44 a8 6a 3f b5 43 42 bf
       -1.0725927 -0.0015888535 0.91663 -0.7588456
0002c0 53 00 18 bf e5 7a f8 3e 61 17 aa bf ae d9 db bd
       -0.59375495 0.4853126 -1.3288385 -0.107348785
0002d0 63 8a 28 3f 28 1e 50 be 21 e2 67 3e 3c f6 8f be
       0.6583616 -0.20324004 0.22644855 -0.2811755
0002e0 2c a4 0b bf 10 35 eb 3e 36 99 4d be 91 a3 1a bf
       -0.5454738 0.4593892 -0.20077977 -0.6040583
0002f0 37 2b 51 3f a1 d6 f0 bd 80 84 ea 3e b3 3a fc be
       0.81706566 -0.11759687 0.45804214 -0.49263534
000300 ca 90 8e 3f 81 1b 19 3f 77 39 01 bf b1 d1 85 3e
       1.1137936 0.5980759 -0.5047831 0.26136544
000310 18 e3 67 bf 49 02 93 3f 28 4b ac 3d 28 4d 9a 3e
       -0.9058089 1.1485072 0.084127724 0.3013699
000320 1a e1 7f bf 7e db 82 3f fb 9e c9 3e bc 60 ab 3c
       -0.9995285 1.0223234 0.39379105 0.02092015
000330 98 e4 8c bf 07 9d 04 3c fd e9 43 bf b2 48 4e be
       -1.1007261 0.008094079 -0.7652891 -0.20144919
000340 64 92 69 3e c6 d3 33 3f 92 64 f6 be 56 9a a7 bf
       0.2280975 0.70245016 -0.48123604 -1.3093975
000350 91 94 d7 be ac 38 1a bf 25 f0 49 be 23 11 ed 3e
       -0.42105535 -0.60242724 -0.19720514 0.46302137
000360 e0 64 89 be 92 99 5b 3e d9 c1 20 3f 9a 06 95 3f
       -0.26834774 0.21445301 0.6279579 1.164264
000370 00 41 9b bf b6 42 f1 be 5a 27 fb bd 0d ee a1 3e
       -1.2129211 -0.4712121 -0.12263365 0.3162693
000380 1f e5 83 bf ef 71 5c bf 35 9a 2f 3c 48 55 1f bf
       -1.0304297 -0.8611135 0.010717918 -0.62239504
000390 4c 63 64 3f 2a 22 8e bd 03 34 37 3f 30 3e 06 bf
       0.89214015 -0.0694011 0.7156374 -0.5243864
0003a0 fc 19 4e 3f cd e7 fe be d0 da 87 bf 2a 5d 08 3f
       0.805084 -0.49786225 -1.0613651 0.5326716
0003b0 d8 cc 14 3f 9d 10 72 3f 34 98 25 be d7 a8 20 3f
       0.58125067 0.945566 -0.16171342 0.6275763
0003c0 08 da 0a 3f e3 bb 87 bf 2c 44 74 3f d6 00 2e be
       0.5423894 -1.0604213 0.9541652 -0.16992506
0003d0 17 b9 25 bf f2 45 99 3f ac fa aa 3e 91 65 68 be
       -0.6473555 1.1974471 0.33394372 -0.22694995
0003e0 70 a5 58 bb 64 35 71 bd c0 78 b4 bf a2 48 c6 3e
       -0.0033057593 -0.058888808 -1.409935 0.3872729
0003f0 8c 5f 3f be 9e b7 0f bd a6 62 ba 3e bf 43 22 3d
       -0.18688792 -0.03508722 0.36403388 0.03961539

classifier.1.bias f4 [10]
000000 a8 49 c8 3d 8f 73 88 3e bf 2c 07 3c 12 90 96 bc
       0.09779674 0.26650664 0.008250414 -0.018379245
000010 af 77 34 be 75 97 22 be f5 cf 84 bd 79 bd 4f bd
       -0.1762378 -0.15878089 -0.06484977 -0.050717805
000020 c0 2d 8e bd 60 1b 1c 3e
       -0.0694232 0.15244818
