labs/models_push/mlp_custom_mnist/mlp_custom_mnist.pt (torch, 72679 bytes, 20 tensors)

layers.1.weight f4 [16, 784]
-0.0064385673 -0.004277276 -0.01169893 -0.05786342 -0.01595086 -0.05810859 -0.013589352 -0.02912578
-0.04455615 -0.04618366 -0.05731994 -0.069654144 -0.054952137 -0.028529633 -0.022654375 -0.05764896
-0.042214617 -0.04931221 -0.014969614 -0.0048761107 -0.022462828 -0.023369985 -0.030483421 -0.016932039
-0.0051169945 -0.020109663 -0.07425676 -0.03302743 -0.06550857 -0.06523039 -0.0380892 -0.07328238
-0.054220792 -0.02396023 -0.027434308 0.022074662 -0.03251588 -0.062678725 -0.014689271 -0.03961042
0.009940365 0.012138182 -0.04308983 -0.039750177 0.03464165 -0.004355884 0.01927137 0.018221904
0.006123051 0.011148454 -0.043062158 -0.062001582 -0.057208546 -0.015456394 -0.067261234 -0.04769206
-0.032472413 -0.037002936 -0.063764684 -0.0031016853 -0.061733473 -0.022985155 -0.039888553 0.010906752
0.039693758 0.00472245 -0.014652812 0.03203684 0.053362638 0.0319343 0.016492179 0.022410722
-0.020643057 0.013747591 0.022855878 0.019204628 0.049843073 0.062489185 0.069888614 0.054936178
-0.07173383 -0.07793121 -0.049020126 -0.05425986 -0.044299547 -0.030095942 -0.059238087 -0.02872253
-0.040671494 -0.01148595 0.03429017 0.035054173 0.00628574 0.030316338 -0.001735022 0.073141985
0.039152287 0.028454488 0.05749733 -0.021457411 0.015356198 -0.016819611 0.014980745 -0.006801341
0.019889953 0.023732508 0.09643865 0.048767477 0.02514123 -0.07250309 -0.04733556 -0.070635535
-0.017456666 -0.05206841 -0.047178097 -0.042528417 -0.04759211 -0.00064484036 -0.029149817 -0.037932783
-0.007874297 0.022218203 -0.035885297 0.006924513 -0.016475124 -0.009708001 -0.018746514 -0.03024838
-0.03367136 -0.011181139 -0.0073663495 -0.012113067 0.007412078 -0.0057194657 0.03812547 0.055987928
-0.035653695 -0.081619516 -0.07778681 -0.021889009 -0.0082864035 -0.07426132 -0.044083 -0.018883834
0.00917879 -0.104342945 -0.06186251 -0.028552722 0.0016985341 -0.012028333 -0.015921216 -0.053795677
-0.028227665 -0.029960973 0.0025738801 -0.029632548 -0.018991493 0.0154393865 0.027775127 0.005536776
0.038893804 0.031042848 -0.028344406 0.029683596 -0.0038087624 -0.065100424 0.023589622 -0.0034549036
-0.05905837 -0.07088243 -0.02768405 -0.04560107 0.024556963 -0.0537951 -0.08108191 -0.008129949
-0.03732528 -0.031998694 -0.06712968 -0.016961012 -0.011188216 -0.04554648 -0.027347708 -0.02532804
-0.046104107 -0.02677718 -0.07752157 -0.029451732 -0.013767665 -0.04692114 0.0011235445 -0.002804538
0.05517422 -0.03479456 -0.0024271274 -0.04289543 -0.017759364 -0.04245103 0.008991227 -0.09062693
-0.015481338 0.00866673 -0.031169137 -0.03316837 -0.032214064 -0.03748243 -0.03892212 0.0029395274
-0.05069738 -0.004735374 -0.015246185 -0.03712964 -0.055337023 -0.040037267 -0.039522283 -0.051228505
-0.038442675 -0.016914358 -0.032775592 0.020401835 0.0043585985 0.033934362 -0.00965915 -0.027900573
-0.036953982 -0.06459015 -0.029011456 -0.083395466 -0.038139105 -0.04719563 -0.08633607 -0.032666735
-0.046933796 -0.03481175 -0.017173575 -0.041161366 -0.013000843 0.004553847 -0.003666201 -0.014857338
-0.043871135 -0.003507842 -0.065498136 -0.0021004598 -0.006349445 0.025430592 -0.0096090725 -0.022532284
0.042099804 0.0044196523 0.008131534 6.565693e-06 -0.008525806 -0.05512122 -0.04973291 -0.047684286
00000000: 9efa d2bb 6428 8cbb deac 3fbc 3202 6dbd
00000010: 61ab 82bc 4603 6ebd e0a5 5ebc 3099 eebc
00000020: 8280 36bd 142b 3dbd 50c8 6abd d5a6 8ebd
00000030: 7e15 61bd fab6 e9bc ab95 b9bc 5121 6cbd
00000040: 3ce9 2cbd 9afb 49bd 1d43 75bc c8c7 9fbb
00000050: f703 b8bc 6972 bfbc 5eb8 f9bc 0fb5 8abc
00000060: 76ac a7bb 05bd a4bc ee13 98bd c547 07bd
00000070: 5b29 86bd 8397 85bd 6c03 1cbd 1315 96bd
00000080: 9f16 5ebd 3f48 c4bc eabd e0bc ecd5 b43c
00000090: 5f2f 05bd b45d 80bd 45ab 70bc 893e 22bd
000000a0: eadc 223c 3adf 463c f67e 30bd 15d1 22bd
000000b0: 67e4 0d3d cebb 8ebb fede 9d3c 1a46 953c
000000c0: e0a3 c83b 01a8 363c f261 30bd 5ff5 7dbd
000000d0: 8253 6abd d13c 7dbc 42c0 89bd c058 43bd
000000e0: cb01 05bd 6490 17bd 0f97 82bd a545 4bbb
000000f0: 3ddc 7cbd 5d4b bcbc 2e62 23bd 3cb2 323c
00000100: ec95 223d c8be 9a3b 5912 70bc 1039 033d
00000110: c892 5a3d 8acd 023d 9b1a 873c b196 b73c
00000120: a11b a9bc 933d 613c 403c bb3c 0653 9d3c
00000130: 4028 4c3d a9f4 7f3d c321 8f3d c204 613d
00000140: 30e9 92bd 669a 9fbd 54c9 48bd 963f 5ebd
00000150: 7173 35bd c48b f6bc a3a3 72bd 834b ebbc
00000160: 2797 26bd 912f 3cbc d973 0c3d f794 0f3d
00000170: 9cf8 cd3b f859 f83c ad69 e3ba 77cb 953d
00000180: 265e 203d 6319 e93c 5282 6b3d 74c7 afbc
00000190: 9098 7b3c 48c9 89bc cc71 753c c9dd debb
000001a0: 41f0 a23c ad6a c23c a081 c53d 68c0 473d
000001b0: fbf4 cd3c 807c 94bd efe2 41bd 5da9 90bd
000001c0: 4801 8fbc af45 55bd d23d 41bd 4732 2ebd
000001d0: f2ef 42bd 810a 29ba 99cb eebc 685f 1bbd
000001e0: 3203 01bc f302 b63c 76fc 12bd 06e7 e23b
000001f0: d7f6 86bc 4f0e 1fbc 4a92 99bc 73cb f7bc
00000200: fbea 09bd 1931 37bc 6b61 f1bb e375 46bc
00000210: 04e1 f23b 5b6a bbbb 7429 1c3d 9953 653d
00000220: 9c09 12bd 2228 a7bd b14e 9fbd 9450 b3bc
00000230: b2c3 07bc 5216 98bd 6090 34bd 45b2 9abc
00000240: a362 163c c1b1 d5bd 8b63 7dbd 66e7 e9bc
00000250: 59a1 de3a 7c12 45bc 366d 82bc db58 5cbd
00000260: b43d e7bc b770 f5bc 8bae 283b f5bf f2bc
00000270: 0c94 9bbc 7bf5 7c3c aa88 e33c d86d b53b
00000280: 1c4f 1f3d 924d fe3c 8732 e8bc 032b f33c
00000290: 6e9c 79bb 5f53 85bd 063f c13c aa6b 62bb
000002a0: 30e7 71bd cf2a 91bd a9c9 e2bc 30c8 3abd
000002b0: af2b c93c 4058 5cbd 460e a6bd 7a33 05bc
000002c0: 65e2 18bd 1011 03bd 497b 89bd d2f1 8abc
000002d0: c74e 37bc f28e 3abd 4d08 e0bc c07c cfbc
000002e0: a9d7 3cbd d15b dbbc a1c3 9ebd c244 f1bc
000002f0: c691 61bc 6230 40bd e643 933a 57cc 37bb
00000300: 5dfe 613d be84 0ebd 7110 1fbb 1eb3 2fbd
00000310: 167c 91bc 22e1 2dbd f04f 133c 9d9a b9bd
00000320: 70a5 7dbc e6fe 0d3c 6b56 ffbc 8fdb 07bd
00000330: e5f2 03bd 2d87 19bd cd6c 1fbd 16a5 403b
00000340: 0ea8 4fbd 322b 9bbb 22cb 79bc 4015 18bd
00000350: 13a9 62bd 1efe 23bd 1ee2 21bd fbd4 51bd
00000360: 1176 1dbd fb8f 8abc b33f 06bd c021 a73c
00000370: 93d2 8e3b c2fe 0a3d 6941 1ebc be8f e4bc
00000380: 0f5d 17bd d747 84bd 6fa9 edbc 3ecb aabd
00000390: c037 1cbd 3450 41bd f7d0 b0bd 8ecd 05bd
000003a0: a73d 40bd c496 0ebd 99af 8cbc d298 28bd
000003b0: 7d01 55bc 7038 953b a544 70bb 316c 73bc
000003c0: 38b2 33bd d3e3 65bb e323 86bd dea7 09bb
000003d0: 010f d0bb d153 d03c 5f6f 1dbc a095 b8bc
000003e0: d870 2c3d bbd2 903b 203a 053c e04e dc36
000003f0: d2af 0bbc cac6 61bd bcb4 4bbd 9950 43bd

layers.1.bias f4 [16]
0.0060408297 -0.018848762 0.008120572 0.004323061 0.027969787 0.017549394 0.07082051 0.022614613
-0.007823021 0.007700361 0.027610915 0.023780664 0.028623732 0.021321125 -0.028473148 -0.0089560915
00000000: 27f2 c53b b868 9abc 260c 053c 77a8 8d3b
00000010: e520 e53c bfc3 8f3c 580a 913d 4842 b93c
00000020: 212c 00bc 4f53 fc3b 4930 e23c abcf c23c
00000030: 517c ea3c a4a9 ae3c 8540 e9bc 92bc 12bc

layers.3.weight f4 [16]
1.0643432 1.0208702 0.991918 0.9958052 0.97504866 0.98343194 0.9447768 0.96782345
1.0133305 1.0489681 1.0046479 0.9837091 0.94711494 1.018721 0.9710466 1.0474274
00000000: 663c 883f e0ab 823f 57ee 7d3f 17ed 7e3f
00000010: ca9c 793f 32c2 7b3f e4dc 713f 47c3 773f
00000020: d0b4 813f 9644 863f 4d98 803f 5cd4 7b3f
00000030: 2076 723f 7365 823f 8396 783f 1a12 863f

layers.3.bias f4 [16]
0.09020667 -0.035541046 -0.03425938 -0.14227785 0.14553146 0.05349582 -0.039298244 0.13783245
-0.0964022 -0.086333424 -0.07324572 0.05470936 -0.068549395 -0.0021036342 0.081294894 0.025835777
00000000: 46be b83d 7d93 11bd 9053 0cbd 49b1 11be
00000010: 3306 153e 6f1e 5b3d 32f7 20bd f323 0d3e
00000020: 846e c5bd 94cf b0bd da01 96bd ec16 603d
00000030: a063 8cbd 20dd 09bb f07d a63d 8da5 d33c

layers.3.running_mean f4 [16]
3.803534 1.5250049 2.3331103 6e-45 2.7591288 6e-45 5.5360065 1.702568
0.54100084 1.6740938 1.0030758 0.7717389 0.24436295 1.4321104 0.5873333 1.4494575
00000000: 1a6d 7340 5c33 c33f ae51 1540 0400 0000
00000010: 9195 3040 0400 0000 f726 b140 c0ed d93f
00000020: 087f 0a3f b548 d63f ca64 803f ae90 453f
00000030: 483a 7a3e 654f b73f 7a5b 163f d387 b93f

layers.3.running_var f4 [16]
5.127828 5.139065 3.8704736 6e-45 3.9385097 6e-45 3.515447 2.8667014
1.1912228 3.97842 2.1727626 1.5060508 0.4443371 2.4513476 1.2552764 2.7718933
00000000: 2b17 a440 3873 a440 d7b5 7740 0400 0000
00000010: 8b10 7c40 0400 0000 15fd 6040 0978 3740
00000020: fd79 983f 6f9e 7e40 8b0e 0b40 46c6 c03f
00000030: 2780 e33e e1e2 1c40 e6ac a03f b366 3140

layers.4.weight f4 [32, 16]
0.12853372 -0.1368052 0.005188905 -0.05973713 -0.07115769 0.21807632 -0.1600451 0.27085456
-0.05869434 -0.001415112 -0.07590361 -0.16577064 0.10505349 -0.101784766 0.07268428 0.11263089
-0.22235867 0.090683065 0.1533363 -0.14092328 -0.12804723 -0.21965969 0.20266175 0.03177617
-0.12509117 -0.11587613 -0.11207058 0.22091405 -0.04827696 0.20406835 -0.118464254 0.10204387
0.24830168 -0.19967218 -0.12408611 -0.05146863 0.032524224 0.18362181 -0.034909245 0.16247985
-0.06531834 -0.07807505 0.008261852 0.0049428884 0.11253796 0.26482388 0.106603 0.04513406
-0.057644375 0.10507739 -0.10211609 0.16673045 -0.2829552 0.07471838 0.28198218 0.051555328
0.041044135 -0.17999187 0.09862034 -0.042948045 0.23762059 -0.027988045 0.15528257 0.009694497
0.021928512 -0.21444553 -0.035230923 0.06470863 0.06488149 0.18465053 -0.27695674 0.044725817
0.09116213 0.09900698 0.21735968 -0.025019463 0.07312074 -0.03757549 -0.08334766 -0.20179693
0.066157624 -0.21917148 -0.19987673 0.14997455 0.05995339 -0.2601878 0.20326087 0.09921917
-0.030725524 -0.08748711 -0.22276299 0.016453354 -0.18844813 0.17575109 -0.22466671 -0.053279046
0.36065376 0.16914189 -0.20862451 -0.18388656 0.08027579 -0.15184696 -0.0500816 0.21118845
0.26640967 0.013955913 -0.07177676 0.099716134 -0.07536977 0.012656742 -0.046387404 -0.039894607
0.26414263 0.094260626 -0.2359745 0.23836203 -0.025066238 -0.16966839 0.24768949 0.04749013
0.0805319 -0.18384852 0.021429831 0.17446731 0.034033407 0.13389137 0.11740516 -0.14532715
0.16143617 -0.14550273 0.083047226 0.011375387 -0.05658487 0.14029758 0.035851065 -0.12964039
0.185871 -0.2741493 0.10868999 0.13342173 -0.1547833 -0.16032031 -0.062439736 -0.111692384
-0.10066506 0.09870623 -0.1659465 0.04629541 -0.022352476 0.1802037 0.036690723 0.072322644
-0.074658215 0.2735551 -0.16078463 0.12139689 0.012324542 -0.09882756 0.15517236 -0.3179012
0.09105743 -0.09547411 -0.0010858813 0.13744433 -0.11105225 -0.120005645 0.13730265 -0.14668779
0.20627695 0.0747744 0.15268916 0.012645731 0.12690607 0.051012192 0.19508445 0.2122457
0.12906606 0.06530487 0.15735906 -0.036777187 0.09624671 0.22339645 0.030260056 0.20299552
-0.24342276 -0.09260201 -0.15770476 -0.1354087 0.0846641 -0.01766062 -0.14810534 0.015714994
0.060798552 0.0074366378 0.057330187 0.19522499 0.08496844 -0.10657041 0.0488899 -0.07801548
-0.028120352 0.019392595 0.1868976 -0.23328081 -0.23271899 -0.02781219 -0.17729995 0.20908698
0.120798714 -0.14021257 -0.24818134 -0.2761908 0.06491171 -0.19733809 -0.17987674 0.14447595
-0.21016924 0.17518182 -0.17694664 0.06325498 -0.026294876 0.02785611 -0.03794995 0.08695512
-0.03764128 0.035213064 -0.06541067 -0.10471896 0.16056123 0.18997394 0.10969698 0.19815743
-0.042279035 0.2807567 -0.28554145 -0.14163254 0.05374909 0.19885097 -0.011217514 -0.22755079
0.1612137 0.1467206 -0.2084888 0.025043897 0.14170857 -0.1818461 0.14577638 -0.20964228
0.1660494 -0.02973606 -0.19197196 -0.2544263 -0.058999576 0.015080219 0.02463011 -0.17982681
00000000: 589e 033e aa16 0cbe b107 aa3b ecae 74bd
00000010: 1fbb 91bd 664f 5f3e dde2 23be 73ad 8a3e
00000020: 7a69 70bd 487b b9ba 5a73 9bbd c7bf 29be
00000030: 4926 d73d 8874 d0bd 7fdb 943d 06ab e63d
00000040: feb1 63be 0bb8 b93d 3104 1d3e 314e 10be
00000050: d01e 03be 78ee 60be 9086 4f3e bb27 023d
00000060: e617 00be 7750 edbd 4385 e5bd 4b37 623e
00000070: 10be 45bd 4bf7 503e 639d f2bd 60fc d03d
00000080: cc42 7e3e dd76 4cbe dc20 febd c5d0 52bd
00000090: 1f38 053d 5b07 3c3e fffc 0ebd 1e61 263e
000000a0: 9fc5 85bd d0e5 9fbd b85c 073c f4f7 a13b
000000b0: 4d7a e63d ff96 873e ac52 da3d 7ede 383d
000000c0: 821c 6cbd d132 d73d 3e22 d1bd 63bb 2a3e
000000d0: 81df 90be f305 993d f85f 903e ae2b 533d
000000e0: e51d 283d ca4f 38be 76f9 c93d 4aea 2fbd
000000f0: d052 733e 2f47 e5bc 6502 1f3e abd5 1e3c
00000100: 6ca3 b33c 9c97 5bbe 4d4e 10bd f585 843d
00000110: 96e0 843d 0715 3d3e 46cd 8dbe 6b32 373d
00000120: 36b3 ba3d 2cc4 ca3d 8993 5e3e 9ef5 ccbc
00000130: 54c0 953d c2e8 19bd 2eb2 aabd dba3 4ebe
00000140: a67d 873d 7d6e 60be 7cac 4cbe ee92 193e
00000150: b091 753d 5637 85be 9e23 503e 6c33 cb3d
00000160: 18b4 fbbc 712c b3bd fb1b 64be 2fc9 863c
00000170: 8cf8 40be 18f8 333e 080f 66be 213b 5abd
00000180: 9ca7 b83e 8833 2d3e aaa1 55be c24c 3cbe
00000190: a267 a43d c57d 1bbe 5d22 4dbd c941 583e
000001a0: d966 883e 57a7 643c b2ff 92bd f937 cc3d
000001b0: 775b 9abd 395e 4f3c b800 3ebd 8768 23bd
000001c0: b43d 873e b70b c13d 4da3 71be 2d15 743e
000001d0: b657 cdbc 8dbd 2dbe 50a2 7d3e 0385 423d
000001e0: e9ed a43d c942 3cbe 9d8d af3c 8fa7 323e
000001f0: 9d66 0b3d d21a 093e 1e72 f03d a4d0 14be
00000200: 864f 253e abfe 14be aa14 aa3d d55f 3a3c
00000210: 89c5 67bd 2baa 0f3e 91d8 123d 73c0 04be
00000220: f854 3e3e 4c5d 8cbe dc98 de3d b59f 083e
00000230: 837f 1ebe 022b 24be cfc0 7fbd fabe e4bd
00000240: 7c29 cebd 7e26 ca3d e1ed 29be 41a0 3d3d
00000250: 8a1c b7bc 5287 383e 0349 163d e51d 943d
00000260: 68e6 98bd 6a0f 8c3e baa4 24be ef9e f83d
00000270: e0ec 493c 1b66 cabd 81e5 1e3e f2c3 a2be
00000280: 517c ba3d ee87 c3bd 2154 8eba 35be 0c3e
00000290: 5d6f e3bd 85c5 f5bd 1199 0c3e 5335 16be
000002a0: 443a 533e 5223 993d 8c5a 1c3e 0a30 4f3c
000002b0: aaf3 013e 29f2 503d 38c4 473e f056 593e
000002c0: e529 043e 8fbe 853d bc22 213e ada3 16bd
000002d0: ff1c c53d 0ac2 643e f0e3 f73c 0fde 4f3e
000002e0: d143 79be 1fa6 bdbd 5b7d 21be 94a8 0abe
000002f0: 5f64 ad3d 01ad 90bc eda8 17be bbbc 803c
00000300: e707 793d 0aaf f33b 0fd3 6a3d 0fe9 473e
00000310: ef03 ae3d 9641 dabd c740 483d 94c6 9fbd
00000320: a75c e6bc 38dd 9e3c 1662 3f3e 2ae1 6ebe
00000330: e34d 6ebe 64d6 e3bc 1e8e 35be e61a 563e
00000340: 5165 f73d e293 0fbe 4023 7ebe e168 8dbe
00000350: 6ef0 843d ff12 4abe 9c31 38be 81f1 133e
00000360: 9b36 57be dd62 333e 8031 35be d48b 813d
00000370: 5a68 d7bc 7f32 e43c 6871 1bbd 8715 b23d
00000380: be2d 1abd 933b 103d 08f6 85bd e576 d6bd
00000390: 2a6a 243e 8788 423e cfa8 e03d c8e9 4a3e
000003a0: c82c 2dbd 58bf 8f3e 7d32 92be 1f08 11be
000003b0: 0128 5c3d 979f 4b3e aac9 37bc 1303 69be
000003c0: 3415 253e ed3d 163e 177e 55be dc28 cd3c
000003d0: 0d1c 113e dd35 3abe 6746 153e 77ac 56be
000003e0: db08 2a3e 0a99 f3bc 4c94 44be 2a44 82be
000003f0: 8aa9 71bd 0613 773c 16c5 c93c 8524 38be

layers.4.bias f4 [32]
0.17415282 0.21809994 -0.0018842452 -0.025954617 0.01497409 -0.06427522 0.08433584 0.17987956
0.09325276 -0.1689546 -0.17707765 0.13563938 0.11006858 0.10872482 -0.0064361314 -0.050987083
0.000856356 0.32351366 0.30152157 0.08095319 0.17303814 0.068345666 0.21791422 0.13570784
-0.014293066 -0.055353824 0.09718951 0.016304247 0.021472353 -0.10283739 0.15680358 -0.008982075
00000000: 1e55 323e 9755 5f3e c7f8 f6ba c79e d4bc
00000010: e355 753c baa2 83bd 45b8 ac3d 5932 383e
00000020: 4efb be3d 6f02 2dbe d853 35be 0de5 0a3e
00000030: a36b e13d 1eab de3d 2fe6 d2bb d5d7 50bd
00000040: 147d 603a 95a3 a53e 0961 9a3e c9ca a53d
00000050: e930 313e d0f8 8b3d e824 5f3e fff6 0a3e
00000060: 772d 6abc b1ba 62bd 4b0b c73d 7c90 853c
00000070: cae6 af3c 699c d2bd 1e91 203e 8e29 13bc

layers.6.weight f4 [32]
1.01954 0.97426784 1.048056 0.9835724 0.9946261 0.9721145 1.0562313 1.0519433
1.0633166 1.0438006 1.0608169 1.0353456 0.9219359 1.024028 1.0177659 1.013771
0.90848786 1.0188583 0.9585545 1.0215372 0.99102265 1.0203756 0.9648059 0.9316833
0.9390959 0.9491615 0.9753591 0.9297256 1.0136031 1.0337803 0.9196112 1.0327208
00000000: 4980 823f 9e69 793f b326 863f 67cb 7b3f
00000010: d19f 7e3f 7fdc 783f 9632 873f 14a6 863f
00000020: c21a 883f 429b 853f d9c8 873f 3486 843f
00000030: fe03 6c3f 5913 833f 2746 823f 40c3 813f
00000040: a992 683f f369 823f d463 753f bbc1 823f
00000050: a9b3 7d3f ab9b 823f 85fd 763f cc82 6e3f
00000060: 9768 703f 40fc 723f 22b1 793f 7f02 6e3f
00000070: bfbd 813f ea52 843f a46b 6b3f 3230 843f

layers.6.bias f4 [32]
0.08475134 0.0019703708 -0.00466843 -0.05272 0.030170714 0.01919335 -0.059591834 0.04253827
0.069282055 0.1005702 -0.03235036 -0.010232039 0.002242431 0.16299434 0.0047598877 0.013642794
-0.0069717956 -0.05226629 0.09356499 -0.057951763 -0.004476449 -0.09289305 0.026127176 0.13465986
-0.14813809 -0.005133053 -0.08502172 0.07984891 0.00649994 -0.039582003 0.07504207 -0.0041721314
00000000: 1c92 ad3d 5621 013b a1f9 98bb edf0 57bd
00000010: 9328 f73c 5f3b 9d3c 9116 74bd 9c3c 2e3d
00000020: c0e3 8d3d c0f7 cd3d d081 04bd 48a4 27bc
00000030: c0f5 123b fde7 263e d5f8 9b3b 0786 5f3c
00000040: a973 e4bb 2d15 56bd 009f bf3d d45e 6dbd
00000050: 2daf 92bb b63e bebd a908 d63c 46e4 093e
00000060: 83b1 17be 2b33 a8bb de1f aebd d387 a33d
00000070: 73fd d43b bd20 22bd a8af 993d 60b6 88bb

layers.6.running_mean f4 [32]
0.335244 0.41420695 0.248958 0.18399572 0.19178455 0.16696702 0.39991602 0.36310145
0.29589367 0.1706996 0.09599744 0.31455916 0.22734052 0.30574307 0.32641697 0.21268332
0.24114236 0.3899603 0.38728535 0.23465224 0.39445284 0.21856925 0.34932032 0.32691208
0.26782233 0.17081004 0.2852499 0.2505905 0.352396 0.17926775 0.34323168 0.1836924
00000000: 1aa5 ab3e ef12 d43e d9ee 7e3e 6069 3c3e
00000010: 2b63 443e 67f9 2a3e cbc1 cc3e 6fe8 b93e
00000020: 607f 973e e0cb 2e3e 4e9a c43d e60d a13e
00000030: f4cb 683e 5b8a 9c3e 2020 a73e a8c9 593e
00000040: 06ee 763e e0a8 c73e 444a c63e ad48 703e
00000050: b9f5 c93e 9ed0 5f3e 1dda b23e 0561 a73e
00000060: 0220 893e d4e8 2e3e 460c 923e 664d 803e
00000070: 406d b43e f791 373e 10bc af3e dc19 3c3e

layers.6.running_var f4 [32]
0.11695498 0.21540228 0.10756817 0.07264475 0.10715075 0.07474763 0.3751817 0.24895163
0.16415328 0.093312666 0.03815105 0.11240045 0.089036785 0.12733124 0.16491847 0.12916401
0.13675275 0.12301888 0.1707657 0.13054846 0.20986632 0.0947031 0.10131072 0.12057346
0.13198453 0.065230764 0.12933163 0.11047184 0.19076544 0.12906069 0.17473125 0.06467851
00000000: 1886 ef3d 6a92 5c3e b34c dc3d c5c6 943d
00000010: da71 db3d 4915 993d d117 c03e 2ded 7e3e
00000020: cc17 283e b61a bf3d 4744 1c3d 3532 e63d
00000030: eb58 b63d 1f63 023e 63e0 283e 9243 043e
00000040: ea08 0c3e 53f1 fb3d 34dd 2e3e 7fae 053e
00000050: 32e7 563e b3f3 c13d ff7b cf3d 38ef f63d
00000060: f426 073e b597 853d 836f 043e 0f3f e23d
00000070: 0458 433e 7c28 043e c0ec 323e 2b76 843d

layers.7.weight f4 [64, 32]
-0.16176645 -0.11095618 0.061672296 -0.17489451 -0.07124276 -0.008235413 -0.09602033 0.076786034
-0.06679202 0.18560533 0.016064944 0.14634736 0.053348705 0.0016075234 -0.112922825 0.080626845
-0.043956365 -0.10632868 0.056137256 -0.15496472 -0.009091111 -0.2018001 -0.08692046 -0.0295937
0.078932896 0.11197834 0.02125052 0.12582894 -0.043489546 -0.13861316 0.12712255 0.056359954
-0.10170315 -0.015279883 -0.15299937 0.0033727675 -0.053183258 -0.1961002 0.060857266 -0.08666909
-0.10240006 -0.17481956 -0.10651861 0.1647144 -0.08794883 -0.20670745 -0.16511592 0.09918995
-0.15831551 -0.06277921 0.09131811 -0.058245283 -0.1901705 0.034623347 0.078895785 -0.053919133
-0.07960703 0.132131 -0.08033507 -0.0019229596 -0.044859737 -0.11723859 0.10088099 0.019564955
-0.16725154 -0.12846681 -0.019057835 0.0035292124 0.015205333 -0.09751014 -0.16869172 -0.15724388
0.00054062635 -0.23468836 -0.020993708 0.20784254 0.007713352 -0.08865551 -0.1971271 -0.076391816
-0.0765768 -0.04519016 -0.003533817 -0.015745096 -0.13659127 -0.11019098 0.087695196 0.0021772725
0.062403698 -0.08030177 -0.0226476 -0.13190487 0.05123639 -0.03225629 0.10733922 -0.044060573
0.16985473 -0.15297776 0.1148095 0.0047680163 0.15916637 0.052678637 -0.03916881 0.047183357
0.043800436 -0.22991486 -0.016512863 -0.0069704023 -0.24268599 0.06509805 -0.084129006 -0.06047253
0.006856275 -0.06751763 -0.04899536 -0.040342167 -0.16785091 0.13289249 0.10553641 -0.03538908
-0.101435795 0.007831416 -0.013993009 0.005185932 -0.17217486 -0.070018575 0.02371247 -0.104277596
0.022891833 0.07602306 0.15271552 -0.105830595 -0.036352113 0.11188846 -0.08410287 0.18442029
0.22671685 -0.08558921 -0.16225733 -0.0010010737 0.042441588 -0.16290803 0.046752423 -0.04771395
0.09810325 -0.15419674 0.13325012 0.08407033 -0.1318424 0.108465776 0.16282952 -0.07634855
-0.001446207 -0.05199733 0.20623232 -0.13143745 0.053538132 0.032044824 0.024225364 -0.13244148
-0.027706975 -0.11064076 0.01320305 0.19838463 -0.18156992 -0.025624665 -0.08456977 -0.17298026
-0.1066095 -0.11101587 0.046977963 0.13883103 -0.00052123517 -0.027931182 -0.16739579 -0.20420568
-0.02075221 -0.17497525 0.08991318 0.14171425 -0.112472095 0.072276875 0.066624 0.04745734
0.005431291 -0.13925324 -0.18425018 -0.004286916 -0.10212818 0.07379977 -0.20180988 -0.12877515
-0.11642666 -0.0121935 -0.2403108 0.072825395 -0.09347104 0.06612771 -0.049490068 -0.21177922
0.03566761 -0.13996361 0.040207244 -0.12347891 0.09816617 -0.111608624 -0.16304184 0.08479806
0.088031545 -0.12627359 0.15318921 -0.117863 0.1468539 -0.018192476 0.0030087742 -0.054230306
0.04875141 0.004779407 -0.05001788 0.14840111 0.045482963 0.0147336405 -0.14074099 -0.03145575
-0.048722655 0.118351065 -0.22880678 -0.2295911 -0.11760767 -0.12766273 -0.124962054 0.014444334
0.12633233 -0.011323551 -0.103006154 0.024580196 0.022419617 -0.08089497 -0.04695794 0.118060544
-0.118606925 0.09501634 0.20877367 0.10367974 -0.1273635 0.14723364 0.06370158 0.06366035
-0.057581365 0.12566778 0.15169345 -0.09282692 -0.04797342 -0.016757976 0.03816556 -0.08748993
00000000: 1ba6 25be fe3c e3bd 179c 7c3d 8c17 33be
00000010: b9e7 91bd d3ed 06bc 4fa6 c4bd ff41 9d3d
00000020: 41ca 88bd 530f 3e3e a19a 833c 15dc 153e
00000030: 2c84 5a3d 89b3 d23a 1544 e7bd b01f a53d
00000040: 970b 34bd dac2 d9bd 2ef0 653d 12af 1ebe
00000050: e2f2 14bc afa4 4ebe 5b03 b2bd 7d6e f2bc
00000060: 92a7 a13d e654 e53d 9215 ae3c 4dd9 003e
00000070: 1822 32bd 9cf0 0dbe 6a2c 023e b2d9 663d
00000080: be49 d0bd 7958 7abc deab 1cbe a609 5d3b
00000090: b0d6 59bd 7ece 48be 7845 793d 907f b1bd
000000a0: 1fb7 d1bd e603 33be 6e26 dabd e4aa 283e
000000b0: 841e b4bd 1eab 53be 2614 29be 1a24 cb3d
000000c0: 761d 22be 6392 80bd fd04 bb3d 9b92 6ebd
000000d0: 0ebc 42be 36d1 0d3d 1d94 a13d 4fda 5cbd
000000e0: 0309 a3bd 594d 073e b786 a4bd d10b fcba
000000f0: d8be 37bd c91a f0bd b19a ce3d af46 a03c
00000100: fd43 2bbe ce8c 03be 2d1f 9cbc 5c4a 673b
00000110: ca1f 793c 65b3 c7bd 86bd 2cbe 8a04 21be
00000120: d2b8 0d3a 2552 70be fffa abbc add4 543e
00000130: 49c0 fc3b 0591 b5bd b0db 49be 5073 9cbd
00000140: 4cd4 9cbd 5119 39bd 9c97 67bb dcfb 80bc
00000150: 95de 0bbe cfab e1bd 8a99 b33d 92b0 0e3b
00000160: 059b 7f3d 4175 a4bd 7687 b9bc 1212 07be
00000170: 40dd 513d 2c1f 04bd aad4 db3d dc78 34bd
00000180: 66ee 2d3e 34a6 1cbe 3e21 eb3d 053d 9c3b
00000190: 82fc 223e 8ec5 573d 796f 20bd 5643 413d
000001a0: 1668 333d cd6e 6bbe fc45 87bc f967 e4bb
000001b0: ad82 78be 2052 853d d44b acbd 0bb2 77bd
000001c0: 9aaa e03b af46 8abd 5caf 48bd d43d 25bd
000001d0: 1ce1 2bbe f814 083e 7923 d83d 24f4 10bd
000001e0: 92bd cfbd 574f 003c ef42 65bc c0ee a93b
000001f0: 9b4e 30be e665 8fbd a740 c23c 7e8f d5bd
00000200: a787 bb3c fab1 9b3d 7561 1c3e b6bd d8bd
00000210: f4e5 14bd c725 e53d 203e acbd acd8 3c3e
00000220: 7628 683e 6549 afbd c926 26be 7636 83ba
00000230: 3bd7 2d3d 5dd1 26be 787f 3f3d b46f 43bd
00000240: 5bea c83d c0e5 1dbe b872 083e 112d ac3d
00000250: b201 07be 4e23 de3d c8bc 263e a15c 9cbd
00000260: a88e bdba 27fb 54bd 912e 533e 8a97 06be
00000270: cd4a 5b3d 6f41 033d 4574 c63c bd9e 07be
00000280: bdf9 e2bc 9f97 e2bd 9b51 583c 5725 4b3e
00000290: 77ed 39be d1ea d1bc ea32 adbd bd21 31be
000002a0: 1556 dabd 4a5c e3bd f76b 403d b929 0e3e
000002b0: 80a3 08ba efcf e4bc cd69 2bbe 4b1b 51be
000002c0: 8a00 aabc b62c 33be 6724 b83d 8a1d 113e
000002d0: c557 e6bd e605 943d 2a72 883d a162 423d
000002e0: f9f8 b13b 6798 0ebe 14ac 3cbe 4279 8cbb
000002f0: 9428 d1bd 5524 973d 40a7 4ebe a2dd 03be
00000300: 1a71 eebd 3fc7 47bc 0914 76be 7b25 953d
00000310: bf6d bfbd f76d 873d 19b6 4abd a7dc 58be
00000320: 3318 123d 9f52 0fbe 5ab0 243d 83e2 fcbd
00000330: 580b c93d 1093 e4bd 71f4 26be 9baa ad3d
00000340: e249 b43d dd4d 01be a2dd 1c3e 2862 f1bd
00000350: de60 163e 6308 95bc db2e 453b 9920 5ebd
00000360: 8faf 473d 929c 9c3b 8cdf 4cbd 76f6 173e
00000370: 584c 3a3d 5e65 713c 681e 10be bfd7 00bd
00000380: 6891 47bd 0b62 f23d 534c 6abe ee19 6bbe
00000390: 4adc f0bd 05ba 02be 1bec ffbd eea7 6c3c
000003a0: 435d 013e 6a86 39bc e4f4 d2bd 685c c93c
000003b0: 58a9 b73c 43ac a5bd f856 40bd bac9 f13d
000003c0: 30e8 f2bd ed97 c23d c4c8 553e 0b56 d43d
000003d0: 946b 02be 6ac4 163e f975 823d 5c60 823d
000003e0: 70da 6bbd 0eaf 003e 8755 1b3e 0a1c bebd
000003f0: c77f 44bd 0648 89bc 7e53 1c3d ec2d b3bd

layers.7.bias f4 [64]
-0.06906675 -0.15558673 0.12764503 0.16613045 -0.06518977 -0.007946996 0.26857165 0.076216735
0.24650487 0.21749376 0.0932422 0.0012805415 0.09011553 0.03686086 -0.07701267 -0.05320745
0.16457173 0.13964713 0.055337988 0.1076733 -0.23115642 -0.11743145 0.1627052 -0.13162221
0.0052991174 0.25133377 0.037492793 0.21042696 -0.14463843 0.114667 0.04991203 0.052964527
-0.05660985 -0.028926628 0.10219303 -0.16833849 0.027106851 0.047499657 0.2472321 0.07892788
-0.026680699 0.13274896 0.03756215 -0.019204678 0.026310703 0.12337126 -0.085643195 0.27732286
-0.20602725 0.118322834 0.13736103 -0.13167669 -0.092580006 -0.13664155 0.19677974 0.07333504
0.06910675 0.15039963 -0.1200155 0.09562047 0.038928468 -0.061290078 -0.021933092 -0.1263325
00000000: de72 8dbd 2152 1fbe 61b5 023e 1a1e 2a3e
00000010: 3782 85bd 1e34 02bc 3982 893e 8517 9c3d
00000020: c66b 7c3e afb6 5e3e c4f5 be3d d8d7 a73a
00000030: 7e8e b83d 6afb 163d d2b8 9dbd 0ef0 59bd
00000040: 7e85 283e a8ff 0e3e 16aa 623d d283 dc3d
00000050: 45b4 6cbe e67f f0bd 319c 263e f9c7 06be
00000060: 38a4 ad3b d2ae 803e 0b92 193d 2a7a 573e
00000070: 191c 14be 88d6 ea3d 8f70 4c3d 55f1 583d
00000080: bbdf 67bd 89f7 ecbc 944a d13d ed60 2cbe
00000090: 300f de3c 008f 423d 692a 7d3e f1a4 a13d
000000a0: 7b91 dabc 58ef 073e c5da 193d 2153 9dbc
000000b0: 8b89 d73c 12aa fc3d b365 afbd 43fd 8d3e
000000c0: cff8 52be 3e53 f23d 5fa8 0c3e 41d6 06be
000000d0: 969a bdbd c3eb 0bbe a180 493e ae30 963d
000000e0: d787 8d3d 5c02 1a3e b0ca f5bd aad4 c33d
000000f0: 7573 1f3d 4e0b 7bbd 07ad b3bc 4f5d 01be

layers.9.weight f4 [64]
1.2004608 1.2796468 1.2395911 1.2109883 1.1942121 1.2620565 1.2223212 1.2175958
1.1953822 1.1626759 1.3059878 1.246039 1.2746055 1.2732645 1.1874692 1.2453169
1.2420805 1.2842518 1.2490555 1.2491041 1.2282798 1.1059264 1.241349 1.2097205
1.2276601 1.2522191 1.2629423 1.2459866 1.2034165 1.2122755 1.233152 1.2759573
1.2167251 1.2286736 1.2097145 1.2684333 1.189873 1.2327985 1.2169368 1.2245601
1.2368308 1.2051189 1.2340826 1.168959 1.3078299 1.1757663 1.3277355 1.2297331
1.1729413 1.2405752 1.2154075 1.2442075 1.1441114 1.1997114 1.1938221 1.2046156
1.214467 1.2091031 1.2709234 1.2595763 1.1989721 1.2116667 1.2468348 1.2334812
00000000: b3a8 993f 77cb a33f ecaa 9e3f aa01 9b3f
00000010: f1db 983f 118b a13f 0575 9c3f 2eda 9b3f
00000020: 4902 993f 90d2 943f 9c2a a73f 357e 9f3f
00000030: 4626 a33f 55fa a23f fefe 973f 8b66 9f3f
00000040: 7efc 9e3f 5d62 a43f 0de1 9f3f a5e2 9f3f
00000050: 4638 9d3f ff8e 8d3f 86e4 9e3f 1fd8 9a3f
00000060: f723 9d3f b748 a03f 18a8 a13f 7d7c 9f3f
00000070: 8d09 9a3f d82b 9b3f edd7 9d3f 9252 a33f
00000080: a6bd 9b3f 2d45 9d3f edd7 9a3f 065c a23f
00000090: c24d 983f 57cc 9d3f 96c4 9b3f 63be 9c3f
000000a0: 7950 9e3f 5641 9a3f 6bf6 9d3f 73a0 953f
000000b0: f866 a73f 837f 963f 3df3 a93f e567 9d3f
000000c0: f122 963f 2bcb 9e3f 7992 9b3f 3142 9f3f
000000d0: 3e72 923f 2590 993f 2acf 983f d830 9a3f
000000e0: a873 9b3f e4c3 9a3f 9ead a23f cc39 a13f
000000f0: eb77 993f e517 9b3f 4898 9f3f b6e2 9d3f

layers.9.bias f4 [64]
-0.18301985 -0.029530393 -0.035358634 -0.08069468 -0.06811801 0.06551947 0.09343519 -0.0069939187
0.16043755 0.12245249 -0.078640856 -0.075546935 -0.016518785 -0.2019147 -0.12198858 -0.19055621
0.036201544 0.0848174 -0.13067885 -0.16859241 -0.21152657 0.07780375 0.112083405 -0.06358643
-0.007519489 -0.12219637 -0.06732775 0.11911866 0.1562554 -0.124435045 0.09481407 0.029166933
-0.05621115 -0.13431908 0.10729455 -0.14347732 -0.11775717 0.03343568 -0.06574512 -0.1720924
0.011975365 -0.08038155 -0.011695073 0.10555709 -0.00346585 -0.016345209 -0.0022332135 -0.003763841
-0.05125429 0.05434066 -0.08785758 -0.11951982 0.01943387 -0.09095251 0.01336223 -0.05640225
0.09124006 -0.13110763 -0.058832996 -0.025344731 -0.008398142 -0.21536146 -0.0426142 -0.2185602
00000000: 8e69 3bbe b9e9 f1bc 37d4 10bd 4143 a5bd
00000010: 7581 8bbd 122f 863d f35a bf3d 3e2d e5bb
00000020: be49 243e 5fc8 fa3d 750e a1bd 5ab8 9abd
00000030: 6752 87bc bac2 4ebe 26d5 f9bd 2b21 43be
00000040: 1248 143d bfb4 ad3d add0 05be 7da3 2cbe
00000050: 6c9a 58be 9357 9f3d fc8b e53d 9a39 82bd
00000060: 0c66 f6bb 1742 fabd 22e3 89bd 7cf4 f33d
00000070: 6a01 203e cdd7 febd e12d c23d 7eef ee3c
00000080: aa3d 66bd f18a 09be 3fbd db3d b8eb 12be
00000090: ac2a f1bd daf3 083d 61a5 86bd fd38 30be
000000a0: 5234 443c 159f a4bd b19c 3fbc 512e d83d
000000b0: 5023 63bb 63e6 85bc 1b5b 12bb c6aa 76bb
000000c0: 05f0 51bd 5094 5e3d adee b3bd cfc6 f4bd
000000d0: c833 9f3c 4f45 babd 41ed 5a3c 0c06 67bd
000000e0: 12dc ba3d 1441 06be defa 70bd c19f cfbc
000000f0: 5c98 09bc b787 5cbe 3a8c 2ebd 3fce 5fbe

layers.9.running_mean f4 [64]
0.22332054 0.18719216 0.31489414 0.35545686 0.18728289 0.3210874 0.41534483 0.3182162
0.5188389 0.475708 0.24716672 0.22324371 0.28294083 0.2842544 0.27046463 0.25075486
0.3072912 0.26708615 0.31813288 0.36405754 0.10971489 0.21617137 0.42211974 0.11377027
0.42823312 0.42113435 0.29018313 0.3700691 0.13754193 0.26602712 0.35358122 0.22794145
0.3638837 0.19136782 0.2886246 0.21287505 0.270083 0.23286344 0.3801847 0.31485772
0.22020043 0.31153536 0.24569613 0.33587056 0.2848404 0.50248444 0.20804729 0.4099552
0.25753453 0.30344978 0.2916125 0.16387329 0.24584371 0.13470699 0.51363164 0.35894758
0.32330087 0.39711872 0.25177935 0.26278415 0.26366302 0.29592833 0.15573558 0.2583678
00000000: 24ae 643e 4daf 3f3e ce39 a13e 71fe b53e
00000010: 16c7 3f3e 9165 a43e 14a8 d43e 3ced a23e
00000020: a0d2 043f 0090 f33e 4619 7d3e 009a 643e
00000030: 9fdd 903e cb89 913e 577a 8a3e f162 803e
00000040: 4655 9d3e 84bf 883e 50e2 a23e c065 ba3e
00000050: 33b2 e03d 075c 5d3e 1420 d83e 6300 e93d
00000060: 5f41 db3e ec9e d73e e292 943e b279 bd3e
00000070: cbd7 0c3e b534 883e 9908 b53e 7c69 693e
00000080: f74e ba3e edf5 433e 9bc6 933e ebfb 593e
00000090: 5248 8a3e c173 6e3e 92a7 c23e 0835 a13e
000000a0: 397c 613e 9081 9f3e c497 7b3e 3af7 ab3e
000000b0: 9ad6 913e d2a2 003f 590a 553e a6e5 d13e
000000c0: 91db 833e c55d 9b3e 3c4e 953e 66ce 273e
000000d0: 74be 7b3e a1f0 093e 5d7d 033f fac7 b73e
000000e0: b187 a53e 2553 cb3e 39e9 803e a58b 863e
000000f0: d7fe 863e eb83 973e 2679 1f3e c948 843e

layers.9.running_var f4 [64]
0.13913189 0.09245232 0.1094154 0.21927793 0.13152151 0.12070838 0.1677033 0.17159007
0.2919989 0.21083902 0.08710704 0.097575836 0.09568194 0.16499293 0.13467781 0.14348155
0.1310595 0.11506953 0.16645396 0.19052067 0.07059234 0.14238444 0.21124902 0.053513918
0.38722345 0.21393298 0.118338354 0.182956 0.04268117 0.124948464 0.17379214 0.09196425
0.24651922 0.11925477 0.11062489 0.17061868 0.1006499 0.09033218 0.15930583 0.17012537
0.122113965 0.10065738 0.07862179 0.22253451 0.11074045 0.39758557 0.09069265 0.21977158
0.21955568 0.11807843 0.2116244 0.08659575 0.11756748 0.055514637 0.29971823 0.23576306
0.20143019 0.29594707 0.18396454 0.14492804 0.1639388 0.2775111 0.052421004 0.1671777
00000000: 9778 0e3e a457 bd3d 2e15 e03d 658a 603e
00000010: 93ad 063e f535 f73d 6aba 2b3e 4fb5 2f3e
00000020: e180 953e 2fe6 573e 2d65 b23d d7d5 c73d
00000030: e5f4 c33d e8f3 283e fbe8 093e d4ec 123e
00000040: 7634 063e 93a9 eb3d e872 2a3e da17 433e
00000050: b792 903d 3acd 113e aa51 583e 6931 5b3d
00000060: 2742 c63e 3f11 5b3e 615b f23d d158 3b3e
00000070: 73d2 2e3d fbe4 ff3d 91f6 313e c157 bc3d
00000080: 896f 7c3e d83b f43d 4d8f e23d aab6 2e3e
00000090: 8921 ce3d 1400 b93d 1121 233e 5835 2e3e
000000a0: e316 fa3d 7525 ce3d 7604 a13d 16e0 633e
000000b0: e4cb e23d 5690 cb3e 11bd b93d cd0b 613e
000000c0: 34d3 603e 1bd3 f13d 11b4 583e 1d59 b13d
000000d0: 38c7 f03d 5163 633d ab74 993e df6b 713e
000000e0: b743 4e3e 6086 973e 3361 3c3e 0468 143e
000000f0: 93df 273e ef15 8e3e 68b7 563d a230 2b3e

layers.10.weight f4 [10, 64]
0.20635296 -0.078503415 -0.023688275 -0.25182974 -0.0957135 -0.0042978125 -0.10552083 -0.22867724
0.1344765 0.058902092 0.24313906 0.28565967 -0.17933619 -0.116658196 -0.1280736 -0.20853478
-0.15250643 -0.025413595 0.19752593 0.09953797 -0.22246145 -0.10308915 0.013818019 -0.052763186
0.17346302 0.22518563 0.18518119 -0.23011705 -0.08684261 0.012379779 -0.07331412 -0.05744551
-0.18331921 0.22892803 0.11832956 -0.039877087 -0.076149076 -0.12703401 0.21709561 0.1849302
-0.05412777 -0.010229001 -0.14384153 0.14148442 -0.11994169 0.054080345 0.04962803 -0.25176173
0.20093367 0.10548012 0.10878761 -0.08377603 -0.056781974 -0.14432932 -0.20075877 0.17854755
0.063102216 -0.08930593 0.16400544 -0.14603089 0.21324986 0.056129757 0.053673897 -0.119068205
-0.00093381805 -0.26524302 0.079721786 -0.18252556 -0.14023706 0.26137123 0.21597753 -0.28574204
-0.20318013 0.09164409 0.00012694982 0.2190051 0.059667308 -0.13473816 0.18759112 0.1054798
0.011406807 -0.20548247 -0.19621934 0.04675289 -0.16469565 0.10380883 0.15577756 -0.15161882
0.08062239 -0.21082936 -0.11797489 -0.2094881 0.030027725 -0.1752387 0.2086674 0.1681046
0.21521074 -0.13615622 -0.0010606449 -0.28410664 0.04631627 0.21603295 0.02421136 0.30424196
-0.17606975 0.0933856 -0.08247644 -0.16897863 0.27128422 0.020638071 -0.025964396 -0.015634172
-0.13398346 0.14274731 -0.00088244287 0.3064433 -0.0038343943 -0.1519359 -0.26104644 -0.15212642
0.12361165 0.19933112 -0.16975035 -0.16266319 -0.13315786 -0.1742961 -0.20227489 -0.16975744
0.042245217 -0.015898382 -0.16969207 -0.2666893 -0.014784636 -0.1285373 0.13664143 -0.13869253
-0.022362923 -0.11552688 -0.21807906 0.033371873 -0.20715755 -0.13938375 0.0070239305 0.09345897
-0.25587395 0.12471494 0.10828452 -0.19662675 -0.2301213 0.08624988 0.21380325 -0.1541077
-0.03442274 0.0679309 -0.034123693 -0.03492363 -0.0077735847 -0.2713899 -0.16513683 -0.20666471
-0.039645124 0.19591308 0.15243982 0.19031729 -0.1286307 0.19999515 0.13813555 -0.1992662
-0.051118102 -0.28955418 -0.24796064 -0.15164489 -0.2780878 -0.18627916 -0.23508102 0.18830688
-0.0022924822 0.07217131 -0.1240046 -0.01868328 -0.05051278 0.21105412 -0.031838797 -0.18731092
0.080929704 0.20400676 0.12443213 0.20308489 -0.10295847 -0.16602261 0.22966887 -0.22339322
-0.14631149 0.06825649 0.10920687 0.115954794 0.2156345 -0.04562221 0.232786 0.2606386
0.19719464 0.18192658 -0.16338117 -0.18680108 -0.08145217 -0.19459721 -0.19882746 -0.20191945
-0.12236681 -0.09297039 -0.064890705 -0.21981478 -0.2375063 -0.16807218 0.07378435 0.12058382
-0.19713002 -0.23004892 -0.24073951 0.25116262 0.18335085 0.172321 0.14819847 0.15416762
-0.26694658 -0.10277588 -0.18373343 0.07146817 -0.1774286 0.018438073 0.057135984 -0.2120373
-0.25895354 -0.09619559 0.16091527 -0.03345929 0.082598455 -0.2864805 -0.17242326 0.13940848
-0.07264842 -0.17569557 -0.21049185 -0.17044427 -0.23531972 -0.11809632 -0.072909944 -0.14848796
0.14664409 -0.053153496 -0.15424356 0.22823735 0.20080872 -0.13306879 -0.018063715 -0.26442045
00000000: 314e 533e 66c6 a0bd ea0d c2bc d4ef 80be
00000010: 7105 c4bd aad4 8cbb 4e1b d8bd 5e2a 6abe
00000020: 35b4 093e 5243 713d 72f9 783e fc41 923e
00000030: e8a3 37be 7eea eebd ba25 03be 248a 55be
00000040: a52a 1cbe 2c30 d0bc 3d44 4a3e 90da cb3d
00000050: efcc 63be 6720 d3bd f964 623c 361e 58bd
00000060: 4aa0 313e 1097 663e 23a0 3d3e cea3 6bbe
00000070: 8ada b1bd 8ed4 4a3c b725 96bd fc4b 6bbd
00000080: 08b8 3bbe 1c6c 6a3e c556 f23d 2856 23bd
00000090: 0cf4 9bbd 3415 02be 504e 5e3e 585e 3d3e
000000a0: 15b5 5dbd 8a97 27bc 324b 13be 4be1 103e
000000b0: fda3 f5bd 5a83 5d3d c346 4b3d eae6 80be
000000c0: 8ec1 4d3e f605 d83d 0acc de3d c492 abbd
000000d0: 3794 68bd 11cb 13be b593 4dbe 2bd5 363e
000000e0: bc3b 813d 07e6 b6bd 0bf1 273e 1f89 15be
000000f0: 2c5e 5a3e 51e8 653d 29d9 5b3d 08da f3bd
00000100: 78cb 74ba efcd 87be 2d45 a33d fbe7 3abe
00000110: 4e9a 0fbe 73d2 853e 3729 5d3e c84c 92be
00000120: 740e 50be e6af bb3d d51d 0539 df42 603e
00000130: b565 743d cdf8 09be e317 403e cb05 d83d
00000140: 9ee3 3a3c ff69 52be b9ed 48be f57f 3f3d
00000150: faa5 28be b999 d43d 2784 1f3e f741 1bbe
00000160: 5a1d a53d a7e3 57be d29c f1bd 0c84 56be
00000170: b4fc f53c c671 33be e8ac 553e 9d23 2c3e
00000180: 3460 5c3e 896c 0bbe 5605 8bba 6d76 91be
00000190: 21b6 3d3d be37 5d3e e756 c63c 9ac5 9b3e
000001a0: a14b 34be f340 bf3d 68e9 a8bd bc08 2dbe
000001b0: c4e5 8a3e 2c11 a93c 49b3 d4bc 3c13 80bc
000001c0: f632 09be 5a2c 123e bd53 67ba 23e6 9c3e
000001d0: 764a 7bbb 1695 1bbe e1a7 85be 07c7 1bbe
000001e0: 1b28 fd3d 751d 4c3e 09d3 2dbe 2e91 26be
000001f0: 895a 08be ad7a 32be 2621 4fbe e5d4 2dbe
00000200: 5209 2d3d 533d 82bc c2c3 2dbe 808b 88be
00000210: 423b 72bc 489f 03be bbeb 0b3e 6a05 0ebe
00000220: 7332 b7bc 5b99 ecbd 1e50 5fbe f2b0 083d
00000230: 1c21 54be 9dba 0ebe 0029 e63b 6b67 bf3d
00000240: e901 83be 8c6a ff3d 46c4 dd3d 8658 49be
00000250: eba4 6bbe c7a3 b03d 3def 5a3e 69ce 1dbe
00000260: dcfe 0cbd 5b1f 8b3d 49c5 0bbd 150c 0fbd
00000270: 8eb9 febb 9ef3 8abe a119 29be ea9f 53be
00000280: ed62 22bd 709d 483e 2f19 1c3e 89e2 423e
00000290: c4b7 03be 87cb 4c3e 6873 0d3e 700c 4cbe
000002a0: 3761 51bd 7240 94be 65e9 7dbe cc48 1bbe
000002b0: 8661 8ebe f7bf 3ebe 14b9 70be 85d3 403e
000002c0: 783d 16bb 8dce 933d 20f6 fdbd ae0d 99bc
000002d0: 7de6 4ebd 921e 583e 6669 02bd 6fce 3fbe
000002e0: 79be a53d 26e7 503e 46d6 fe3d 7cf5 4f3e
000002f0: e4db d2bd d501 2abe 512e 6b3e 31c1 64be
00000300: aed2 15be 0fca 8b3d daa7 df3d b579 ed3d
00000310: 4acf 5c3e 5bde 3abd 745f 6e3e 6c72 853e
00000320: 64ed 493e f64a 3a3e 654d 27be c848 3fbe
00000330: 65d0 a6bd 7e44 47be 6d99 4bbe f9c3 4ebe
00000340: 739b fabd 4367 bebd 6be5 84bd 2017 61be
00000350: da34 73be 1d1b 2cbe 401c 973d a6f4 f63d
00000360: 74dc 49be f291 6bbe 6b84 76be 6398 803e
00000370: 53c0 3b3e eb74 303e 57c1 173e 1ede 1d3e
00000380: 39ad 88be 297c d2bd 9e24 3cbe e75d 923d
00000390: d8af 35be 710b 973c 6c07 6a3d 4e20 59be
000003a0: 8f95 84be 3202 c5bd f9c6 243e 9c0c 09bd
000003b0: 6129 a93d 92ad 92be b98f 30be 19c1 0e3e
000003c0: b2c8 94bd 8ae9 33be 2d8b 57be f188 2ebe
000003d0: a7f7 70be 7cdc f1bd cf51 95bd 3a0d 18be
000003e0: de29 163e 7bb7 59bd 06f2 1dbe 0db7 693e
000003f0: cda0 4d3e 2f43 08be 5bfa 93bc 1e62 87be

layers.10.bias f4 [10]
0.09065448 0.1240747 0.17488462 0.11156274 0.021618176 0.11213182 0.13524081 0.11792108
0.08389497 0.06956036
00000000: 0ea9 b93d e01a fe3d f414 333e 017b e43d
00000010: 9a18 b13c 5ea5 e53d 917c 0a3e 9b80 f13d
00000020: 20d1 ab3d a975 8e3d
