labs/models_push/wgan/discriminator.pt (torch, 237157 bytes, 5 tensors)

1.weight f4 [64, 784]
0	0xbc23d33b	-0.009999092
1	0xbc23d33a	-0.009999091
2	0xbc23d3b4	-0.009999204
3	0xbc23d345	-0.009999101
4	0xbc23d3ca	-0.009999225
5	0xbc23d367	-0.009999133
6	0xbc23d467	-0.009999371
7	0xbc23d3f8	-0.009999268
8	0xbc23d2bb	-0.0099989725
9	0xbc23d42b	-0.009999315
10	0xbc23d385	-0.009999161
11	0xbc23d1ec	-0.00999878
12	0xbc232ca7	-0.009959376
13	0xbc1eb6af	-0.00968711
14	0xbc1fbf82	-0.009750249
15	0xbc01c0ad	-0.007919473
16	0xbc23d176	-0.00999867
17	0xbc23d3c1	-0.0099992165
18	0xbc23d3f4	-0.009999264
19	0xbc23d4c3	-0.009999457
20	0xbc23d394	-0.009999175
21	0xbc23d433	-0.009999323
22	0xbc23d405	-0.00999928
23	0xbc23d4a5	-0.009999429
24	0xbc23d301	-0.009999038
25	0xbc23d329	-0.009999075
26	0xbc23d4e2	-0.009999486
27	0xbc23d397	-0.009999177
28	0xbc23d30a	-0.009999046
29	0xbc23d452	-0.009999352
30	0xbc23d491	-0.00999941
31	0xbc23d375	-0.009999146
32	0xbbcac9c1	-0.0061886017
33	0xbb89cada	-0.00420509
34	0xbc1f6dec	-0.009730797
35	0xbc0e15cd	-0.00867219
36	0xbc09f577	-0.00842034
37	0xbc19fb97	-0.009398363
38	0xbc1eee94	-0.009700436
39	0xbc023716	-0.007947704
40	0xbbdfb3bb	-0.0068268455
41	0xbba7cfec	-0.0051212218
42	0xbbaec56c	-0.005333593
43	0xbbbb79c4	-0.0057213027
44	0xbb800431	-0.0039067497
45	0xbc13bfca	-0.009017894
46	0xbbeec97a	-0.0072872015
47	0xbb9f4819	-0.0048608896
48	0xbba7e91b	-0.005124224
49	0xbb768aff	-0.003761947
50	0xbc1b03f5	-0.009461393
51	0xbc1fff85	-0.00976551
52	0xbc23d3ba	-0.00999921
53	0xbc23d451	-0.009999351
54	0xbc23d30d	-0.009999049
55	0xbc23d4b1	-0.00999944
56	0xbc23d3fd	-0.009999272
57	0xbc23d44f	-0.009999349
58	0xbb7649c4	-0.0037580589
59	0xbc1a7fd2	-0.009429889
60	0xbc1e9633	-0.009679365
61	0xbc0c65f9	-0.008569234
62	0xbb43fbe5	-0.002990478
63	0x3a9546cc	0.0011388897
64	0x3b556820	0.0032563284
65	0x3ba04d3a	0.0048920186
66	0x3ba88a2e	0.0051434254
67	0x3b659345	0.0035030406
68	0x3bdf69cb	0.0068180314
69	0xb94ee49a	-0.00019730852
70	0xbb54770f	-0.0032419597
71	0xbb7f6d82	-0.0038975184
72	0x3ba74f11	0.005105861
73	0x3b3ca019	0.002878195
74	0xbbd1ef2e	-0.0064066863
75	0x3b5420db	0.0032368216
76	0x3a1b1554	0.0005915959
77	0x3bc3c6dd	0.005974634
78	0xbb030f04	-0.0019997964
79	0xbc09c876	-0.00840961
80	0xbb70f5e6	-0.003676766
81	0xbc14a787	-0.009073145
82	0xbc23d1bf	-0.009998738
83	0xbc23d360	-0.009999126
84	0xbc23d370	-0.009999141
85	0xbc23d3bb	-0.009999211
86	0xbc158db9	-0.009128028
87	0xbc16b277	-0.009197823
88	0xbc057ad9	-0.008146965
89	0xbc1a1aaf	-0.009405776
90	0x3a8e1276	0.0010839242
91	0x3bebcd1f	0.007196083
92	0x3c1eb7dd	0.009687391
93	0x3b897bc2	0.0041956613
94	0x3bf86507	0.007580403
95	0x3bf5f197	0.0075056064
96	0xbb27fff5	-0.002563474
97	0x3bce680f	0.006299026
98	0x3bde430e	0.006782896
99	0x3b94546b	0.004526665
100	0x3ac5aedc	0.0015082019
101	0xba96a871	-0.0011494291
102	0x3b0000c7	0.0019531713
103	0x3bebabf1	0.007192128
104	0x3c1dcefa	0.009631867
105	0x3be6d850	0.0070448294
106	0x3bbf8e7d	0.0058458433
107	0xbb84eeab	-0.0040567718
108	0xbc00bd41	-0.007857622
109	0xbc1c8b01	-0.0095546255
110	0xbc1eb543	-0.009686771
111	0xbc23d407	-0.009999282
112	0xbc23d4a9	-0.009999433
113	0xbbb14add	-0.0054105357
114	0xbc19b132	-0.009380626
115	0xbba5c92f	-0.0050593833
116	0xbc18c044	-0.009323183
117	0xbbbe7ac8	-0.0058129765
118	0xbbf9bef0	-0.0076216385
119	0x3c00ff5f	0.007873385
120	0x3bcb5da5	0.0062062317
121	0x3b941276	0.0045188023
122	0x3b64bb5d	0.0034901716
123	0xbb6419a5	-0.0034805324
124	0x3b364db2	0.0027817306
125	0xbb8a1814	-0.004214296
126	0x3ba47aa6	0.0050195036
127	0x3bb61ca5	0.005557614
128	0x3b79dbf0	0.0038125478
129	0x3b66e774	0.0035233172
130	0xbba1711a	-0.004926813
131	0x3bf89abc	0.007586805
132	0x3b6ef337	0.0036460885
133	0x39887e64	0.0002603411
134	0x3b34926b	0.0027553092
135	0x3b28e76b	0.0025772701
136	0x3a1c5da7	0.0005964883
137	0xbae47c11	-0.0017431994
138	0xbbc13e3d	-0.005897312
139	0xbc1f8ed8	-0.009738646
140	0xbc23d377	-0.009999148
141	0xbc23d3ee	-0.009999258
142	0xbbcb439f	-0.0062031294
143	0xbbeac0f2	-0.007164114
144	0xbbd2886b	-0.0064249537
145	0xbbc8cda3	-0.0061280294
146	0x3bf6f16d	0.0075361044
147	0x3badf1b7	0.0053083557
148	0x3bebdc5b	0.0071978993
149	0xbc05f4ec	-0.00817607
150	0xbb2eb62f	-0.0026658883
151	0x3b689ef1	0.0035495127
152	0x3c22c4f4	0.009934653
153	0x3c131ec5	0.008979504
154	0x3bdfe313	0.0068324893
155	0x3ab3096b	0.0013659423
156	0xbbaa91a9	-0.0052053523
157	0x3b45cda5	0.0030182388
158	0xb93cee54	-0.00018017861
159	0x3bb9a364	0.0056652296
160	0x3b910956	0.0044261618
161	0x3b5ef9a0	0.00340233
162	0xbafb4931	-0.0019171593
163	0xbb1371b9	-0.0022498204
164	0x3847779e	4.75567e-05
165	0xbbc3ba69	-0.0059731496
166	0x3ac4744a	0.001498827
167	0xbc1fbaa0	-0.009749085
168	0xbc23d49e	-0.009999422
169	0xbbd30ebc	-0.0064409655
170	0xbbe4558f	-0.006968207
171	0x3b666606	0.0035156026
172	0x3bdc280c	0.006718641
173	0x3c01ad3b	0.0079148365
174	0x3bd99f0f	0.0066412757
175	0x3bcc61ce	0.006237245
176	0xbc0a08f1	-0.008424983
177	0xbbd4d047	-0.006494555
178	0x3b4b9bac	0.003106813
179	0x3bd61ade	0.0065339645
180	0x3c020ea8	0.007938065
181	0x3b81b980	0.003958881
182	0x3b76351d	0.003756828
183	0xbb803c9a	-0.0039134743
184	0x3c1f843d	0.009736118
185	0x3c217be9	0.009856203
186	0xbb49a7bd	-0.0030770146
187	0x3abce4ee	0.0014411488
188	0xbab26916	-0.001361164
189	0x3b4a3837	0.003085626
190	0xbb4a2137	-0.0030842551
191	0xba37c96b	-0.00070109096
192	0x3b9b478f	0.004738755
193	0x3b33facc	0.002746272
194	0x3b115c04	0.002218009
195	0xbc08ac05	-0.008341794
196	0xbc22c040	-0.009933531
197	0xbbc1c608	-0.0059134997
198	0xbbba5f3d	-0.005687623
199	0x3bba928f	0.0056937407
200	0x3be88a3d	0.0070965574
201	0x3be61058	0.0070209913
202	0x3c1894b2	0.0093127955
203	0x3b5f521b	0.0034076038
204	0x3b227482	0.0024788682
205	0xbba26a33	-0.0049565076
206	0x3b8992f0	0.0041984245
207	0x3b5187ac	0.0031971736
208	0x3bcc7d00	0.006240487
209	0x3c0d19b6	0.008612087
210	0x3abc7b71	0.001438005
211	0x3c1adf0d	0.0094525935
212	0x3b1e9034	0.0024194838
213	0x3a26eb44	0.0006367455
214	0xbc1d608e	-0.00960554
215	0xba4a52f3	-0.0007718049
216	0xbbb2f5d1	-0.0054614325
217	0xbbb91e0f	-0.005649335
218	0xbb80c478	-0.003929671
219	0x3b1e179a	0.0024122954
220	0x3c0d3b5b	0.0086201085
221	0x3b7e8a8e	0.003883991
222	0xba2d1880	-0.0006603077
223	0xbc208800	-0.00979805
224	0xbc15454e	-0.009110762
225	0xbb6ab9a6	-0.0035816221
226	0x3bac5542	0.005259187
227	0x3c0dadc1	0.008647383
228	0x3bf62862	0.007512138
229	0x3bf45ca3	0.007457332
230	0x3b91e5b2	0.0044524306
231	0xbbdc8037	-0.0067291516
232	0xbb8ff4f0	-0.0043932125
233	0xbb5c1318	-0.0033580717
234	0xba17fad1	-0.00057975674
235	0x3c111d84	0.008857135
236	0x3bcf7614	0.0063312147
237	0xbac1ce3f	-0.0014786198
238	0xbbd5e413	-0.0065274327
239	0xbbe4f5b9	-0.0069873002
240	0xbb5f5ead	-0.003408353
241	0x3bfbc66c	0.007683566
242	0x3ab0345d	0.001344334
243	0xba78691d	-0.00094761123
244	0xba5e2530	-0.00084741693
245	0xbc0386f6	-0.008027783
246	0xbb1e4e25	-0.0024155464
247	0x3b1c9fca	0.0023898953
248	0x3b1c658d	0.002386424
249	0xbbf70f16	-0.00753964
250	0x3b63bc6e	0.0034749764
251	0xbc1da2a2	-0.009621294
252	0xbc16178f	-0.00916089
253	0xbb620153	-0.0034485653
254	0x3bfe89ae	0.0077678775
255	0xbb8fd434	-0.0043893103

1.bias f4 [64]
0	0x3b7f66b0	0.0038971119
1	0x3c0e8c55	0.00870045
2	0x3bb4cb77	0.005517419
3	0x3c07afe6	0.008281684
4	0xbc145d89	-0.009055504
5	0x3b8fb0d2	0.0043850923
6	0xbc23614f	-0.009971931
7	0x3c0b860a	0.008515844
8	0x3c1813b3	0.00928204
9	0x3b5c15de	0.003358237
10	0xbc10be10	-0.008834377
11	0x3c02acf7	0.007975808
12	0x3bf264a4	0.007397251
13	0x3bed00a5	0.007232743
14	0xbbfa66f1	-0.007641666
15	0xbc0985c2	-0.008393707
16	0xbc1356f1	-0.008992896
17	0x3b677f41	0.0035323652
18	0x3c23d70a	0.01
19	0x3c106574	0.008813251
20	0x3c0b1bdc	0.008490529
21	0x3b45df7b	0.003019302
22	0x38ee4032	0.00011360682
23	0xbbf49158	-0.0074636154
24	0xbbcaa8cd	-0.0061846734
25	0x3be365b6	0.006939615
26	0x3c12edf5	0.008967866
27	0xbc0f8a24	-0.008760963
28	0x3baff896	0.00537021
29	0x3bb2ca11	0.005456217
30	0xbbf9de43	-0.0076253726
31	0x3bb880ae	0.005630574
32	0x3bffd5c8	0.007807467
33	0x3b169276	0.002297548
34	0x3bc18d34	0.0059067253
35	0xbc166bac	-0.009180944
36	0x3bde0d73	0.0067765056
37	0xbc23a21d	-0.009987381
38	0x3c23d70a	0.01
39	0x3b84c88f	0.0040522288
40	0x3c23d70a	0.01
41	0x3aceee4c	0.0015787571
42	0x3c0997db	0.008398022
43	0x3aff8ad5	0.0019496331
44	0x3c0daba7	0.008646882
45	0x3c075814	0.008260746
46	0x3bd8e215	0.006618748
47	0x3b5e4432	0.003391516
48	0x3ba0e8b8	0.0049105547
49	0x3c23d70a	0.01
50	0x3b91182b	0.00442793
51	0x3bee1ad9	0.007266384
52	0x3c1b9855	0.009496768
53	0x3c05efb3	0.0081748245
54	0x3c119f87	0.008888132
55	0x3bd2d041	0.006433517
56	0x3c19f067	0.009395695
57	0x3bef23bc	0.007297961
58	0xbbfe1589	-0.007754032
59	0xbc12728a	-0.008938441
60	0xbc1a64f2	-0.009423481
61	0x3c23d70a	0.01
62	0x3bf24157	0.007393043
63	0x3c23d70a	0.01

3.weight f4 [128, 64]
0	0x3a2a79ab	0.00065031153
1	0xbc1f689f	-0.009729533
2	0x3c0e916e	0.008701665
3	0xbc206fe2	-0.0097923
4	0x3c23d70a	0.01
5	0x3c001e4c	0.007819723
6	0x3bd3b753	0.006461063
7	0x3b5a49c0	0.0033308119
8	0x3c2197ed	0.009862882
9	0x3c23d70a	0.01
10	0x3c23d70a	0.01
11	0xbc23d70a	-0.01
12	0xbc1c219f	-0.0095295
13	0x3c20b6ae	0.009809179
14	0x3c228b2c	0.0099208765
15	0x3c23b394	0.009991545
16	0x3c23d70a	0.01
17	0xbba1320e	-0.004919297
18	0x3b6e183e	0.0036330367
19	0xbc02bc85	-0.007979517
20	0xbc1c5cb5	-0.009543587
21	0x3bb1d14e	0.0054265624
22	0x3c022bcc	0.007945012
23	0x3c21b1fe	0.009869097
24	0x3c22ee8a	0.009944567
25	0xbc0ed4eb	-0.008717756
26	0x3c22d034	0.009937335
27	0x3b4982aa	0.0030748048
28	0x3c23d70a	0.01
29	0xbc173b36	-0.009230426
30	0x3c22152c	0.009892743
31	0x3c2299b9	0.009924346
32	0xbc218abf	-0.00985974
33	0xbc1b11ee	-0.009464724
34	0xbbec1d20	-0.0072056204
35	0x3c2140f6	0.009842148
36	0x3c23d70a	0.01
37	0x3bfc85d9	0.0077063856
38	0x3bff32cf	0.0077880393
39	0xbbee73e6	-0.0072769998
40	0xb9b0e63a	-0.00033740868
41	0x3c23d70a	0.01
42	0xbc215bba	-0.0098485295
43	0x3c2344ee	0.009965165
44	0xbc20cbc4	-0.0098142065
45	0xbc032ce6	-0.00800631
46	0x3c2227e8	0.00989721
47	0xbc23d70a	-0.01
48	0x3c1e637e	0.0096672755
49	0x3aa79848	0.0012786472
50	0xbc2168ee	-0.009851677
51	0xbc21d742	-0.009877982
52	0xbc1ec78e	-0.009691132
53	0xbc158327	-0.009125507
54	0xbc1e344f	-0.009656026
55	0xbc23d70a	-0.01
56	0xbc227ae3	-0.009916994
57	0x3c226439	0.00991159
58	0x3c21c68f	0.009874
59	0x3c2318d0	0.009954646
60	0x3c1663f1	0.009179101
61	0xbbe78b6d	-0.0070661814
62	0xbc04c3a5	-0.008103286
63	0x3bda414d	0.0066606165
64	0x3a2a79ab	0.00065031153
65	0xbc1f689f	-0.009729533
66	0x3c0e916e	0.008701665
67	0xbc206fe2	-0.0097923
68	0x3c23d70a	0.01
69	0x3c001e4c	0.007819723
70	0x3bd3b753	0.006461063
71	0x3b5a49c0	0.0033308119
72	0x3c2197ed	0.009862882
73	0x3c23d70a	0.01
74	0x3c23d70a	0.01
75	0xbc23d70a	-0.01
76	0xbc1c219f	-0.0095295
77	0x3c20b6ae	0.009809179
78	0x3c228b2c	0.0099208765
79	0x3c23b394	0.009991545
80	0x3c23d70a	0.01
81	0xbba1320e	-0.004919297
82	0x3b6e183e	0.0036330367
83	0xbc02bc85	-0.007979517
84	0xbc1c5cb5	-0.009543587
85	0x3bb1d14e	0.0054265624
86	0x3c022bcc	0.007945012
87	0x3c21b1fe	0.009869097
88	0x3c22ee8a	0.009944567
89	0xbc0ed4eb	-0.008717756
90	0x3c22d034	0.009937335
91	0x3b4982aa	0.0030748048
92	0x3c23d70a	0.01
93	0xbc173b36	-0.009230426
94	0x3c22152c	0.009892743
95	0x3c2299b9	0.009924346
96	0xbc218abf	-0.00985974
97	0xbc1b11ee	-0.009464724
98	0xbbec1d20	-0.0072056204
99	0x3c2140f6	0.009842148
100	0x3c23d70a	0.01
101	0x3bfc85d9	0.0077063856
102	0x3bff32cf	0.0077880393
103	0xbbee73e6	-0.0072769998
104	0xb9b0e63a	-0.00033740868
105	0x3c23d70a	0.01
106	0xbc215bba	-0.0098485295
107	0x3c2344ee	0.009965165
108	0xbc20cbc4	-0.0098142065
109	0xbc032ce6	-0.00800631
110	0x3c2227e8	0.00989721
111	0xbc23d70a	-0.01
112	0x3c1e637e	0.0096672755
113	0x3aa79848	0.0012786472
114	0xbc2168ee	-0.009851677
115	0xbc21d742	-0.009877982
116	0xbc1ec78e	-0.009691132
117	0xbc158327	-0.009125507
118	0xbc1e344f	-0.009656026
119	0xbc23d70a	-0.01
120	0xbc227ae3	-0.009916994
121	0x3c226439	0.00991159
122	0x3c21c68f	0.009874
123	0x3c2318d0	0.009954646
124	0x3c1663f1	0.009179101
125	0xbbe78b6d	-0.0070661814
126	0xbc04c3a5	-0.008103286
127	0x3bda414d	0.0066606165
128	0x3a2a79ab	0.00065031153
129	0xbc1f689f	-0.009729533
130	0x3c0e916e	0.008701665
131	0xbc206fe2	-0.0097923
132	0x3c23d70a	0.01
133	0x3c001e4c	0.007819723
134	0x3bd3b753	0.006461063
135	0x3b5a49c0	0.0033308119
136	0x3c2197ed	0.009862882
137	0x3c23d70a	0.01
138	0x3c23d70a	0.01
139	0xbc23d70a	-0.01
140	0xbc1c219f	-0.0095295
141	0x3c20b6ae	0.009809179
142	0x3c228b2c	0.0099208765
143	0x3c23b394	0.009991545
144	0x3c23d70a	0.01
145	0xbba1320e	-0.004919297
146	0x3b6e183e	0.0036330367
147	0xbc02bc85	-0.007979517
148	0xbc1c5cb5	-0.009543587
149	0x3bb1d14e	0.0054265624
150	0x3c022bcc	0.007945012
151	0x3c21b1fe	0.009869097
152	0x3c22ee8a	0.009944567
153	0xbc0ed4eb	-0.008717756
154	0x3c22d034	0.009937335
155	0x3b4982aa	0.0030748048
156	0x3c23d70a	0.01
157	0xbc173b36	-0.009230426
158	0x3c22152c	0.009892743
159	0x3c2299b9	0.009924346
160	0xbc218abf	-0.00985974
161	0xbc1b11ee	-0.009464724
162	0xbbec1d20	-0.0072056204
163	0x3c2140f6	0.009842148
164	0x3c23d70a	0.01
165	0x3bfc85d9	0.0077063856
166	0x3bff32cf	0.0077880393
167	0xbbee73e6	-0.0072769998
168	0xb9b0e63a	-0.00033740868
169	0x3c23d70a	0.01
170	0xbc215bba	-0.0098485295
171	0x3c2344ee	0.009965165
172	0xbc20cbc4	-0.0098142065
173	0xbc032ce6	-0.00800631
174	0x3c2227e8	0.00989721
175	0xbc23d70a	-0.01
176	0x3c1e637e	0.0096672755
177	0x3aa79848	0.0012786472
178	0xbc2168ee	-0.009851677
179	0xbc21d742	-0.009877982
180	0xbc1ec78e	-0.009691132
181	0xbc158327	-0.009125507
182	0xbc1e344f	-0.009656026
183	0xbc23d70a	-0.01
184	0xbc227ae3	-0.009916994
185	0x3c226439	0.00991159
186	0x3c21c68f	0.009874
187	0x3c2318d0	0.009954646
188	0x3c1663f1	0.009179101
189	0xbbe78b6d	-0.0070661814
190	0xbc04c3a5	-0.008103286
191	0x3bda414d	0.0066606165
192	0x3a2a9e41	0.0006508567
193	0xbc1f688f	-0.009729519
194	0x3be718ad	0.007052502
195	0x3c047d35	0.008086492
196	0x3c23d70a	0.01
197	0x3c002002	0.007820131
198	0x3bd3b8cf	0.00646124
199	0x3b5a509e	0.0033312212
200	0x3c2197ef	0.009862884
201	0x3c23d70a	0.01
202	0x3c23d70a	0.01
203	0xbc23d70a	-0.01
204	0xbc23d70a	-0.01
205	0x3c20b6a7	0.009809173
206	0x3c228b2c	0.0099208765
207	0x3c23b394	0.009991545
208	0x3c23d70a	0.01
209	0xbc23d70a	-0.01
210	0x3b6e1c15	0.0036332656
211	0xbc02bba5	-0.007979308
212	0x3bfdc531	0.0077444543
213	0x3bb1d0e2	0.005426512
214	0x3c022be2	0.007945033
215	0x3c21b200	0.009869099
216	0x3c22ee89	0.0099445665
217	0xbc0ed518	-0.008717798
218	0x3c22d035	0.009937336
219	0x3a07d2f6	0.0005181277
220	0x3c23d70a	0.01
221	0xbc173af7	-0.009230367
222	0x3c22151b	0.009892727
223	0x3c2299c6	0.009924358
224	0xbc218ac1	-0.009859742
225	0xbc1b11fc	-0.009464737
226	0xbbec2258	-0.0072062425
227	0x3c2140f2	0.009842144
228	0x3c23d70a	0.01
229	0x3bfc8965	0.0077068084
230	0x3ba496a9	0.005022843
231	0xbbee8028	-0.007278461
232	0xb9b02869	-0.00033599444
233	0x3c23d70a	0.01
234	0x3bffe0da	0.007808787
235	0x3c2344ee	0.009965165
236	0xbc23d70a	-0.01
237	0xbc032d00	-0.008006334
238	0x3c2227e8	0.00989721
239	0xbc23d70a	-0.01
240	0x3c1e6374	0.009667266
241	0x3aa7bb99	0.0012796997
242	0xbc2168f2	-0.009851681
243	0xbc21d743	-0.009877983
244	0x3bdaa8be	0.0066729477
245	0xbc23d70a	-0.01
246	0x3bb590c6	0.00554094
247	0xbc23d70a	-0.01
248	0x3bed6498	0.0072446577
249	0x3c226426	0.009911573
250	0x3c21c6ac	0.009874027
251	0x3c2318e3	0.009954664
252	0x3c1663d8	0.009179078
253	0xbbe77ff4	-0.0070648137
254	0xbc04f0d8	-0.008114062
255	0x3bda4781	0.006661356

3.bias f4 [128]
0	0x3c23d70a	0.01
1	0x3c23d70a	0.01
2	0x3c23d70a	0.01
3	0xbc05b775	-0.008161415
4	0x3c23d70a	0.01
5	0x3c105bfc	0.008810993
6	0x3c23d70a	0.01
7	0x39929be2	0.00027963432
8	0x3c23d70a	0.01
9	0x3c23d70a	0.01
10	0x3c23d70a	0.01
11	0x3c23d70a	0.01
12	0xb9c010ba	-0.00036633556
13	0x3c23d70a	0.01
14	0x3c23d70a	0.01
15	0x3c23d70a	0.01
16	0x3c23d70a	0.01
17	0x3c23d70a	0.01
18	0x3c23d70a	0.01
19	0x3c23d70a	0.01
20	0x3c23d70a	0.01
21	0x3c23d70a	0.01
22	0x3c23d70a	0.01
23	0x3c23d70a	0.01
24	0x3c23d70a	0.01
25	0x3c23d70a	0.01
26	0x3c23d70a	0.01
27	0x3c23d70a	0.01
28	0x3c23d70a	0.01
29	0xbc23d70a	-0.01
30	0x3c23d70a	0.01
31	0x3c23d70a	0.01
32	0x3c23d70a	0.01
33	0xb99f0782	-0.00030332437
34	0x3c23d70a	0.01
35	0x3c23d70a	0.01
36	0x3bac8487	0.005264822
37	0x3c23d70a	0.01
38	0x38f0e61e	0.000114869545
39	0x3c23d70a	0.01
40	0x3c23d70a	0.01
41	0x3c23d70a	0.01
42	0x3c23d70a	0.01
43	0x3c23d70a	0.01
44	0xbc23d70a	-0.01
45	0x3c23d70a	0.01
46	0x3c23d70a	0.01
47	0x3c23d70a	0.01
48	0xbc23d70a	-0.01
49	0x3c23d70a	0.01
50	0x3c23d70a	0.01
51	0x3c23d70a	0.01
52	0x3c23d70a	0.01
53	0x3c23d70a	0.01
54	0x3c23d70a	0.01
55	0xbb8e11b8	-0.0043356083
56	0x3c23d70a	0.01
57	0x3c23d70a	0.01
58	0x3c23d70a	0.01
59	0x3c23d70a	0.01
60	0x3c23d70a	0.01
61	0x3c23d70a	0.01
62	0x3c23d70a	0.01
63	0x3c23d70a	0.01
64	0x3c23d70a	0.01
65	0x3c23d70a	0.01
66	0x3c23d70a	0.01
67	0x3c23d70a	0.01
68	0x3c23d70a	0.01
69	0x3c23d70a	0.01
70	0x3c23d70a	0.01
71	0x3c23d70a	0.01
72	0x3c23d70a	0.01
73	0xbc23d70a	-0.01
74	0x3c23d70a	0.01
75	0x3c23d70a	0.01
76	0x3c23d70a	0.01
77	0x3c23d70a	0.01
78	0x3c23d70a	0.01
79	0x3c23d70a	0.01
80	0x3c23d70a	0.01
81	0x3c23d70a	0.01
82	0x3c23d70a	0.01
83	0x3c23d70a	0.01
84	0x3c23d70a	0.01
85	0x3c23d70a	0.01
86	0x3c23d70a	0.01
87	0x3c23d70a	0.01
88	0x3c23d70a	0.01
89	0x3c23d70a	0.01
90	0x3c23d70a	0.01
91	0x3c23d70a	0.01
92	0x3c23d70a	0.01
93	0x3c23d70a	0.01
94	0x3c23d70a	0.01
95	0x3c23d70a	0.01
96	0x3c23d70a	0.01
97	0xbc23d70a	-0.01
98	0x3c23d70a	0.01
99	0x3c23d70a	0.01
100	0x3c23d70a	0.01
101	0x3c23d70a	0.01
102	0x3c23d70a	0.01
103	0x3c23d70a	0.01
104	0x3c23d70a	0.01
105	0x3c23d70a	0.01
106	0x3c23d70a	0.01
107	0x3c23d70a	0.01
108	0x3c23d70a	0.01
109	0x3c23d70a	0.01
110	0x3c23d70a	0.01
111	0x3c23d70a	0.01
112	0x3c23d70a	0.01
113	0x3c23d70a	0.01
114	0x3c23d70a	0.01
115	0x3c23d70a	0.01
116	0x3c23d70a	0.01
117	0x3c23d70a	0.01
118	0xbbd68621	-0.006546751
119	0x3c23d70a	0.01
120	0x3c23d70a	0.01
121	0x3c23d70a	0.01
122	0x3c23d70a	0.01
123	0x3c23d70a	0.01
124	0x3c23d70a	0.01
125	0x3c23d70a	0.01
126	0xbc23d70a	-0.01
127	0x3c23d70a	0.01

5.weight f4 [1, 128]
0	0x3c2335e0	0.009961575
1	0x3c2335e0	0.009961575
2	0x3c2335e0	0.009961575
3	0x3c232e9e	0.009959845
4	0x3c2335e0	0.009961575
5	0x3c22f35c	0.009945717
6	0x3c2335e0	0.009961575
7	0x3c22bd3f	0.009932815
8	0xbc22b60f	-0.009931101
9	0xbc229163	-0.009922358
10	0x3c2335e0	0.009961575
11	0x3c2335e0	0.009961575
12	0x3beef1ea	0.007292022
13	0xbc22c8fd	-0.009935615
14	0xbc21cdde	-0.009875743
15	0x3c2335e0	0.009961575
16	0xbc225e5f	-0.009910195
17	0x3c2335e0	0.009961575
18	0xbc228a3d	-0.009920654
19	0x3c2335e0	0.009961575
20	0x3c2335e0	0.009961575
21	0xbc2260e4	-0.009910796
22	0x3c2335e0	0.009961575
23	0xbc227752	-0.0099161435
24	0xbc224b68	-0.009905674
25	0x3c2335e0	0.009961575
26	0xbc22712e	-0.009914679
27	0xbc2284c2	-0.009919347
28	0x3c2335e0	0.009961575
29	0xbbedf6c7	-0.007262084
30	0xbc229253	-0.009922582
31	0x3c2335e0	0.009961575
32	0xbc229780	-0.009923816
33	0x3ba78a8b	0.005112951
34	0x3c2335e0	0.009961575
35	0x3c2335e0	0.009961575
36	0x3c226b15	0.009913226
37	0xbc22827b	-0.009918804
38	0x3bda703e	0.0066662123
39	0x3c2335e0	0.009961575
40	0x3c2335e0	0.009961575
41	0xbc2284e6	-0.009919381
42	0xbc22b4d7	-0.009930811
43	0x3c2335e0	0.009961575
44	0x3c23112b	0.009952824
45	0xbc22bb72	-0.009932386
46	0xbc22a922	-0.00992802
47	0x3c2335e0	0.009961575
48	0x3c11a933	0.008890438
49	0xbc22292b	-0.0098975105
50	0x3c2335e0	0.009961575
51	0x3c2335e0	0.009961575
52	0x3c2335e0	0.009961575
53	0xbc2281fd	-0.009918687
54	0x3c2335e0	0.009961575
55	0x3c230ab5	0.009951283
56	0xbc2257c4	-0.00990862
57	0xbc22abb7	-0.009928635
58	0x3c2335e0	0.009961575
59	0xbc225f88	-0.009910472
60	0xbc229ef5	-0.009925594
61	0xbc223750	-0.009900883
62	0x3c2335e0	0.009961575
63	0xbc222b75	-0.009898056
64	0x3c2335e0	0.009961575
65	0xbc22964d	-0.00992353
66	0xbc22b89d	-0.009931711
67	0xbc2268be	-0.009912668
68	0xbc2245fd	-0.009904382
69	0x3c2335e0	0.009961575
70	0x3c2335e0	0.009961575
71	0xbc226d8c	-0.009913813
72	0xbc223662	-0.009900661
73	0xbbc84945	-0.00611225
74	0x3c2335e0	0.009961575
75	0xbc22b1ff	-0.009930133
76	0x3c2335e0	0.009961575
77	0xbc228bab	-0.009920995
78	0x3c2335e0	0.009961575
79	0xbc22806d	-0.009918314
80	0xbc22a836	-0.0099278
81	0xbc226396	-0.009911438
82	0xbc22625a	-0.009911144
83	0xbc223878	-0.0099011585
84	0x3c2335e0	0.009961575
85	0x3c2335e0	0.009961575
86	0xbc227f31	-0.00991802
87	0xbc225ac9	-0.00990934
88	0xbc229aaf	-0.009924575
89	0x3c2335e0	0.009961575
90	0xbc22c18c	-0.0099338405
91	0xbc224bfe	-0.009905813
92	0xbc22a009	-0.009925851
93	0xbc226a57	-0.009913049
94	0xbc2295a7	-0.009923375
95	0xbc223b58	-0.009901844
96	0xbc22970e	-0.00992371
97	0x3c0e495d	0.008684483
98	0xbc22555e	-0.009908048
99	0x3c2335e0	0.009961575
100	0x3c2335e0	0.009961575
101	0xbc229889	-0.0099240625
102	0x3c2335e0	0.009961575
103	0x3c2335e0	0.009961575
104	0x3c2335e0	0.009961575
105	0x3c2335e0	0.009961575
106	0x3c2335e0	0.009961575
107	0xbc225fe0	-0.009910554
108	0xbc22747d	-0.009915468
109	0x3c2335e0	0.009961575
110	0x3c2335e0	0.009961575
111	0x3c2335e0	0.009961575
112	0xbc225e36	-0.009910157
113	0xbc225a8f	-0.009909286
114	0x3c2335e0	0.009961575
115	0xbc22808e	-0.009918345
116	0x3c2335e0	0.009961575
117	0xbc228f9b	-0.0099219335
118	0x3c232253	0.009956914
119	0x3c2335e0	0.009961575
120	0xbc22b4e4	-0.009930823
121	0xbc227e42	-0.0099177975
122	0x3c2335e0	0.009961575
123	0x3c2335e0	0.009961575
124	0xbc22a825	-0.009927784
125	0x3c2335e0	0.009961575
126	0xbc0b6a73	-0.008509266
127	0xbc22b2c3	-0.009930315
